<?xml version="1.0"?>
<net name="torch-jit-export" version="11">
	<layers>
		<layer id="0" name="input" type="Parameter" version="opset1">
			<data shape="1,3,240,320" element_type="f32" />
			<output>
				<port id="0" precision="FP32" names="input">
					<dim>1</dim>
					<dim>3</dim>
					<dim>240</dim>
					<dim>320</dim>
				</port>
			</output>
		</layer>
		<layer id="1" name="base_net.0.0.weight_compressed" type="Const" version="opset1">
			<data element_type="f16" shape="16, 3, 3, 3" offset="0" size="864" />
			<output>
				<port id="0" precision="FP16" names="base_net.0.0.weight">
					<dim>16</dim>
					<dim>3</dim>
					<dim>3</dim>
					<dim>3</dim>
				</port>
			</output>
		</layer>
		<layer id="2" name="base_net.0.0.weight" type="Convert" version="opset1">
			<data destination_type="f32" />
			<rt_info>
				<attribute name="decompression" version="0" />
			</rt_info>
			<input>
				<port id="0" precision="FP16">
					<dim>16</dim>
					<dim>3</dim>
					<dim>3</dim>
					<dim>3</dim>
				</port>
			</input>
			<output>
				<port id="1" precision="FP32">
					<dim>16</dim>
					<dim>3</dim>
					<dim>3</dim>
					<dim>3</dim>
				</port>
			</output>
		</layer>
		<layer id="3" name="245" type="Convolution" version="opset1">
			<data strides="2, 2" dilations="1, 1" pads_begin="1, 1" pads_end="1, 1" auto_pad="explicit" />
			<input>
				<port id="0" precision="FP32">
					<dim>1</dim>
					<dim>3</dim>
					<dim>240</dim>
					<dim>320</dim>
				</port>
				<port id="1" precision="FP32">
					<dim>16</dim>
					<dim>3</dim>
					<dim>3</dim>
					<dim>3</dim>
				</port>
			</input>
			<output>
				<port id="2" precision="FP32" names="245">
					<dim>1</dim>
					<dim>16</dim>
					<dim>120</dim>
					<dim>160</dim>
				</port>
			</output>
		</layer>
		<layer id="4" name="base_net.0.1.weight_compressed" type="Const" version="opset1">
			<data element_type="f16" shape="16" offset="864" size="32" />
			<output>
				<port id="0" precision="FP16" names="base_net.0.1.weight">
					<dim>16</dim>
				</port>
			</output>
		</layer>
		<layer id="5" name="base_net.0.1.weight" type="Convert" version="opset1">
			<data destination_type="f32" />
			<rt_info>
				<attribute name="decompression" version="0" />
			</rt_info>
			<input>
				<port id="0" precision="FP16">
					<dim>16</dim>
				</port>
			</input>
			<output>
				<port id="1" precision="FP32">
					<dim>16</dim>
				</port>
			</output>
		</layer>
		<layer id="6" name="base_net.0.1.bias_compressed" type="Const" version="opset1">
			<data element_type="f16" shape="16" offset="896" size="32" />
			<output>
				<port id="0" precision="FP16" names="base_net.0.1.bias">
					<dim>16</dim>
				</port>
			</output>
		</layer>
		<layer id="7" name="base_net.0.1.bias" type="Convert" version="opset1">
			<data destination_type="f32" />
			<rt_info>
				<attribute name="decompression" version="0" />
			</rt_info>
			<input>
				<port id="0" precision="FP16">
					<dim>16</dim>
				</port>
			</input>
			<output>
				<port id="1" precision="FP32">
					<dim>16</dim>
				</port>
			</output>
		</layer>
		<layer id="8" name="base_net.0.1.running_mean_compressed" type="Const" version="opset1">
			<data element_type="f16" shape="16" offset="928" size="32" />
			<output>
				<port id="0" precision="FP16" names="base_net.0.1.running_mean">
					<dim>16</dim>
				</port>
			</output>
		</layer>
		<layer id="9" name="base_net.0.1.running_mean" type="Convert" version="opset1">
			<data destination_type="f32" />
			<rt_info>
				<attribute name="decompression" version="0" />
			</rt_info>
			<input>
				<port id="0" precision="FP16">
					<dim>16</dim>
				</port>
			</input>
			<output>
				<port id="1" precision="FP32">
					<dim>16</dim>
				</port>
			</output>
		</layer>
		<layer id="10" name="base_net.0.1.running_var_compressed" type="Const" version="opset1">
			<data element_type="f16" shape="16" offset="960" size="32" />
			<output>
				<port id="0" precision="FP16" names="base_net.0.1.running_var">
					<dim>16</dim>
				</port>
			</output>
		</layer>
		<layer id="11" name="base_net.0.1.running_var" type="Convert" version="opset1">
			<data destination_type="f32" />
			<rt_info>
				<attribute name="decompression" version="0" />
			</rt_info>
			<input>
				<port id="0" precision="FP16">
					<dim>16</dim>
				</port>
			</input>
			<output>
				<port id="1" precision="FP32">
					<dim>16</dim>
				</port>
			</output>
		</layer>
		<layer id="12" name="246" type="BatchNormInference" version="opset5">
			<data epsilon="9.9999997473787516e-06" />
			<input>
				<port id="0" precision="FP32">
					<dim>1</dim>
					<dim>16</dim>
					<dim>120</dim>
					<dim>160</dim>
				</port>
				<port id="1" precision="FP32">
					<dim>16</dim>
				</port>
				<port id="2" precision="FP32">
					<dim>16</dim>
				</port>
				<port id="3" precision="FP32">
					<dim>16</dim>
				</port>
				<port id="4" precision="FP32">
					<dim>16</dim>
				</port>
			</input>
			<output>
				<port id="5" precision="FP32" names="246">
					<dim>1</dim>
					<dim>16</dim>
					<dim>120</dim>
					<dim>160</dim>
				</port>
			</output>
		</layer>
		<layer id="13" name="247" type="ReLU" version="opset1">
			<input>
				<port id="0" precision="FP32">
					<dim>1</dim>
					<dim>16</dim>
					<dim>120</dim>
					<dim>160</dim>
				</port>
			</input>
			<output>
				<port id="1" precision="FP32" names="247">
					<dim>1</dim>
					<dim>16</dim>
					<dim>120</dim>
					<dim>160</dim>
				</port>
			</output>
		</layer>
		<layer id="14" name="base_net.1.0.weight_compressed" type="Const" version="opset1">
			<data element_type="f16" shape="16, 1, 3, 3" offset="992" size="288" />
			<output>
				<port id="0" precision="FP16" names="base_net.1.0.weight">
					<dim>16</dim>
					<dim>1</dim>
					<dim>3</dim>
					<dim>3</dim>
				</port>
			</output>
		</layer>
		<layer id="15" name="base_net.1.0.weight" type="Convert" version="opset1">
			<data destination_type="f32" />
			<rt_info>
				<attribute name="decompression" version="0" />
			</rt_info>
			<input>
				<port id="0" precision="FP16">
					<dim>16</dim>
					<dim>1</dim>
					<dim>3</dim>
					<dim>3</dim>
				</port>
			</input>
			<output>
				<port id="1" precision="FP32">
					<dim>16</dim>
					<dim>1</dim>
					<dim>3</dim>
					<dim>3</dim>
				</port>
			</output>
		</layer>
		<layer id="16" name="Constant_253" type="Const" version="opset1">
			<data element_type="i64" shape="1" offset="1280" size="8" />
			<rt_info>
				<attribute name="precise" version="0" />
			</rt_info>
			<output>
				<port id="0" precision="I64">
					<dim>1</dim>
				</port>
			</output>
		</layer>
		<layer id="17" name="ShapeOf_254" type="ShapeOf" version="opset3">
			<data output_type="i64" />
			<input>
				<port id="0" precision="FP32">
					<dim>16</dim>
					<dim>1</dim>
					<dim>3</dim>
					<dim>3</dim>
				</port>
			</input>
			<output>
				<port id="1" precision="I64">
					<dim>4</dim>
				</port>
			</output>
		</layer>
		<layer id="18" name="Constant_251" type="Const" version="opset1">
			<data element_type="i64" shape="" offset="1288" size="8" />
			<rt_info>
				<attribute name="precise" version="0" />
			</rt_info>
			<output>
				<port id="0" precision="I64" />
			</output>
		</layer>
		<layer id="19" name="Constant_252" type="Const" version="opset1">
			<data element_type="i64" shape="2" offset="1296" size="16" />
			<rt_info>
				<attribute name="precise" version="0" />
			</rt_info>
			<output>
				<port id="0" precision="I64">
					<dim>2</dim>
				</port>
			</output>
		</layer>
		<layer id="20" name="VariadicSplit_255" type="VariadicSplit" version="opset1">
			<input>
				<port id="0" precision="I64">
					<dim>4</dim>
				</port>
				<port id="1" precision="I64" />
				<port id="2" precision="I64">
					<dim>2</dim>
				</port>
			</input>
			<output>
				<port id="3" precision="I64">
					<dim>1</dim>
				</port>
				<port id="4" precision="I64">
					<dim>3</dim>
				</port>
			</output>
		</layer>
		<layer id="21" name="Divide_256" type="Divide" version="opset1">
			<data auto_broadcast="numpy" m_pythondiv="true" />
			<input>
				<port id="0" precision="I64">
					<dim>1</dim>
				</port>
				<port id="1" precision="I64">
					<dim>1</dim>
				</port>
			</input>
			<output>
				<port id="2" precision="I64">
					<dim>1</dim>
				</port>
			</output>
		</layer>
		<layer id="22" name="Concat_257" type="Concat" version="opset1">
			<data axis="0" />
			<input>
				<port id="0" precision="I64">
					<dim>1</dim>
				</port>
				<port id="1" precision="I64">
					<dim>1</dim>
				</port>
				<port id="2" precision="I64">
					<dim>3</dim>
				</port>
			</input>
			<output>
				<port id="3" precision="I64">
					<dim>5</dim>
				</port>
			</output>
		</layer>
		<layer id="23" name="Reshape_258" type="Reshape" version="opset1">
			<data special_zero="false" />
			<input>
				<port id="0" precision="FP32">
					<dim>16</dim>
					<dim>1</dim>
					<dim>3</dim>
					<dim>3</dim>
				</port>
				<port id="1" precision="I64">
					<dim>5</dim>
				</port>
			</input>
			<output>
				<port id="2" precision="FP32">
					<dim>16</dim>
					<dim>1</dim>
					<dim>1</dim>
					<dim>3</dim>
					<dim>3</dim>
				</port>
			</output>
		</layer>
		<layer id="24" name="248" type="GroupConvolution" version="opset1">
			<data strides="1, 1" pads_begin="1, 1" pads_end="1, 1" dilations="1, 1" auto_pad="explicit" />
			<input>
				<port id="0" precision="FP32">
					<dim>1</dim>
					<dim>16</dim>
					<dim>120</dim>
					<dim>160</dim>
				</port>
				<port id="1" precision="FP32">
					<dim>16</dim>
					<dim>1</dim>
					<dim>1</dim>
					<dim>3</dim>
					<dim>3</dim>
				</port>
			</input>
			<output>
				<port id="2" precision="FP32" names="248">
					<dim>1</dim>
					<dim>16</dim>
					<dim>120</dim>
					<dim>160</dim>
				</port>
			</output>
		</layer>
		<layer id="25" name="base_net.1.1.weight_compressed" type="Const" version="opset1">
			<data element_type="f16" shape="16" offset="1312" size="32" />
			<output>
				<port id="0" precision="FP16" names="base_net.1.1.weight">
					<dim>16</dim>
				</port>
			</output>
		</layer>
		<layer id="26" name="base_net.1.1.weight" type="Convert" version="opset1">
			<data destination_type="f32" />
			<rt_info>
				<attribute name="decompression" version="0" />
			</rt_info>
			<input>
				<port id="0" precision="FP16">
					<dim>16</dim>
				</port>
			</input>
			<output>
				<port id="1" precision="FP32">
					<dim>16</dim>
				</port>
			</output>
		</layer>
		<layer id="27" name="base_net.1.1.bias_compressed" type="Const" version="opset1">
			<data element_type="f16" shape="16" offset="1344" size="32" />
			<output>
				<port id="0" precision="FP16" names="base_net.1.1.bias">
					<dim>16</dim>
				</port>
			</output>
		</layer>
		<layer id="28" name="base_net.1.1.bias" type="Convert" version="opset1">
			<data destination_type="f32" />
			<rt_info>
				<attribute name="decompression" version="0" />
			</rt_info>
			<input>
				<port id="0" precision="FP16">
					<dim>16</dim>
				</port>
			</input>
			<output>
				<port id="1" precision="FP32">
					<dim>16</dim>
				</port>
			</output>
		</layer>
		<layer id="29" name="base_net.1.1.running_mean_compressed" type="Const" version="opset1">
			<data element_type="f16" shape="16" offset="1376" size="32" />
			<output>
				<port id="0" precision="FP16" names="base_net.1.1.running_mean">
					<dim>16</dim>
				</port>
			</output>
		</layer>
		<layer id="30" name="base_net.1.1.running_mean" type="Convert" version="opset1">
			<data destination_type="f32" />
			<rt_info>
				<attribute name="decompression" version="0" />
			</rt_info>
			<input>
				<port id="0" precision="FP16">
					<dim>16</dim>
				</port>
			</input>
			<output>
				<port id="1" precision="FP32">
					<dim>16</dim>
				</port>
			</output>
		</layer>
		<layer id="31" name="base_net.1.1.running_var_compressed" type="Const" version="opset1">
			<data element_type="f16" shape="16" offset="1408" size="32" />
			<output>
				<port id="0" precision="FP16" names="base_net.1.1.running_var">
					<dim>16</dim>
				</port>
			</output>
		</layer>
		<layer id="32" name="base_net.1.1.running_var" type="Convert" version="opset1">
			<data destination_type="f32" />
			<rt_info>
				<attribute name="decompression" version="0" />
			</rt_info>
			<input>
				<port id="0" precision="FP16">
					<dim>16</dim>
				</port>
			</input>
			<output>
				<port id="1" precision="FP32">
					<dim>16</dim>
				</port>
			</output>
		</layer>
		<layer id="33" name="249" type="BatchNormInference" version="opset5">
			<data epsilon="9.9999997473787516e-06" />
			<input>
				<port id="0" precision="FP32">
					<dim>1</dim>
					<dim>16</dim>
					<dim>120</dim>
					<dim>160</dim>
				</port>
				<port id="1" precision="FP32">
					<dim>16</dim>
				</port>
				<port id="2" precision="FP32">
					<dim>16</dim>
				</port>
				<port id="3" precision="FP32">
					<dim>16</dim>
				</port>
				<port id="4" precision="FP32">
					<dim>16</dim>
				</port>
			</input>
			<output>
				<port id="5" precision="FP32" names="249">
					<dim>1</dim>
					<dim>16</dim>
					<dim>120</dim>
					<dim>160</dim>
				</port>
			</output>
		</layer>
		<layer id="34" name="250" type="ReLU" version="opset1">
			<input>
				<port id="0" precision="FP32">
					<dim>1</dim>
					<dim>16</dim>
					<dim>120</dim>
					<dim>160</dim>
				</port>
			</input>
			<output>
				<port id="1" precision="FP32" names="250">
					<dim>1</dim>
					<dim>16</dim>
					<dim>120</dim>
					<dim>160</dim>
				</port>
			</output>
		</layer>
		<layer id="35" name="base_net.1.3.weight_compressed" type="Const" version="opset1">
			<data element_type="f16" shape="32, 16, 1, 1" offset="1440" size="1024" />
			<output>
				<port id="0" precision="FP16" names="base_net.1.3.weight">
					<dim>32</dim>
					<dim>16</dim>
					<dim>1</dim>
					<dim>1</dim>
				</port>
			</output>
		</layer>
		<layer id="36" name="base_net.1.3.weight" type="Convert" version="opset1">
			<data destination_type="f32" />
			<rt_info>
				<attribute name="decompression" version="0" />
			</rt_info>
			<input>
				<port id="0" precision="FP16">
					<dim>32</dim>
					<dim>16</dim>
					<dim>1</dim>
					<dim>1</dim>
				</port>
			</input>
			<output>
				<port id="1" precision="FP32">
					<dim>32</dim>
					<dim>16</dim>
					<dim>1</dim>
					<dim>1</dim>
				</port>
			</output>
		</layer>
		<layer id="37" name="251" type="Convolution" version="opset1">
			<data strides="1, 1" dilations="1, 1" pads_begin="0, 0" pads_end="0, 0" auto_pad="explicit" />
			<input>
				<port id="0" precision="FP32">
					<dim>1</dim>
					<dim>16</dim>
					<dim>120</dim>
					<dim>160</dim>
				</port>
				<port id="1" precision="FP32">
					<dim>32</dim>
					<dim>16</dim>
					<dim>1</dim>
					<dim>1</dim>
				</port>
			</input>
			<output>
				<port id="2" precision="FP32" names="251">
					<dim>1</dim>
					<dim>32</dim>
					<dim>120</dim>
					<dim>160</dim>
				</port>
			</output>
		</layer>
		<layer id="38" name="base_net.1.4.weight_compressed" type="Const" version="opset1">
			<data element_type="f16" shape="32" offset="2464" size="64" />
			<output>
				<port id="0" precision="FP16" names="base_net.1.4.weight">
					<dim>32</dim>
				</port>
			</output>
		</layer>
		<layer id="39" name="base_net.1.4.weight" type="Convert" version="opset1">
			<data destination_type="f32" />
			<rt_info>
				<attribute name="decompression" version="0" />
			</rt_info>
			<input>
				<port id="0" precision="FP16">
					<dim>32</dim>
				</port>
			</input>
			<output>
				<port id="1" precision="FP32">
					<dim>32</dim>
				</port>
			</output>
		</layer>
		<layer id="40" name="base_net.1.4.bias_compressed" type="Const" version="opset1">
			<data element_type="f16" shape="32" offset="2528" size="64" />
			<output>
				<port id="0" precision="FP16" names="base_net.1.4.bias">
					<dim>32</dim>
				</port>
			</output>
		</layer>
		<layer id="41" name="base_net.1.4.bias" type="Convert" version="opset1">
			<data destination_type="f32" />
			<rt_info>
				<attribute name="decompression" version="0" />
			</rt_info>
			<input>
				<port id="0" precision="FP16">
					<dim>32</dim>
				</port>
			</input>
			<output>
				<port id="1" precision="FP32">
					<dim>32</dim>
				</port>
			</output>
		</layer>
		<layer id="42" name="base_net.1.4.running_mean_compressed" type="Const" version="opset1">
			<data element_type="f16" shape="32" offset="2592" size="64" />
			<output>
				<port id="0" precision="FP16" names="base_net.1.4.running_mean">
					<dim>32</dim>
				</port>
			</output>
		</layer>
		<layer id="43" name="base_net.1.4.running_mean" type="Convert" version="opset1">
			<data destination_type="f32" />
			<rt_info>
				<attribute name="decompression" version="0" />
			</rt_info>
			<input>
				<port id="0" precision="FP16">
					<dim>32</dim>
				</port>
			</input>
			<output>
				<port id="1" precision="FP32">
					<dim>32</dim>
				</port>
			</output>
		</layer>
		<layer id="44" name="base_net.1.4.running_var_compressed" type="Const" version="opset1">
			<data element_type="f16" shape="32" offset="2656" size="64" />
			<output>
				<port id="0" precision="FP16" names="base_net.1.4.running_var">
					<dim>32</dim>
				</port>
			</output>
		</layer>
		<layer id="45" name="base_net.1.4.running_var" type="Convert" version="opset1">
			<data destination_type="f32" />
			<rt_info>
				<attribute name="decompression" version="0" />
			</rt_info>
			<input>
				<port id="0" precision="FP16">
					<dim>32</dim>
				</port>
			</input>
			<output>
				<port id="1" precision="FP32">
					<dim>32</dim>
				</port>
			</output>
		</layer>
		<layer id="46" name="252" type="BatchNormInference" version="opset5">
			<data epsilon="9.9999997473787516e-06" />
			<input>
				<port id="0" precision="FP32">
					<dim>1</dim>
					<dim>32</dim>
					<dim>120</dim>
					<dim>160</dim>
				</port>
				<port id="1" precision="FP32">
					<dim>32</dim>
				</port>
				<port id="2" precision="FP32">
					<dim>32</dim>
				</port>
				<port id="3" precision="FP32">
					<dim>32</dim>
				</port>
				<port id="4" precision="FP32">
					<dim>32</dim>
				</port>
			</input>
			<output>
				<port id="5" precision="FP32" names="252">
					<dim>1</dim>
					<dim>32</dim>
					<dim>120</dim>
					<dim>160</dim>
				</port>
			</output>
		</layer>
		<layer id="47" name="253" type="ReLU" version="opset1">
			<input>
				<port id="0" precision="FP32">
					<dim>1</dim>
					<dim>32</dim>
					<dim>120</dim>
					<dim>160</dim>
				</port>
			</input>
			<output>
				<port id="1" precision="FP32" names="253">
					<dim>1</dim>
					<dim>32</dim>
					<dim>120</dim>
					<dim>160</dim>
				</port>
			</output>
		</layer>
		<layer id="48" name="base_net.2.0.weight_compressed" type="Const" version="opset1">
			<data element_type="f16" shape="32, 1, 3, 3" offset="2720" size="576" />
			<output>
				<port id="0" precision="FP16" names="base_net.2.0.weight">
					<dim>32</dim>
					<dim>1</dim>
					<dim>3</dim>
					<dim>3</dim>
				</port>
			</output>
		</layer>
		<layer id="49" name="base_net.2.0.weight" type="Convert" version="opset1">
			<data destination_type="f32" />
			<rt_info>
				<attribute name="decompression" version="0" />
			</rt_info>
			<input>
				<port id="0" precision="FP16">
					<dim>32</dim>
					<dim>1</dim>
					<dim>3</dim>
					<dim>3</dim>
				</port>
			</input>
			<output>
				<port id="1" precision="FP32">
					<dim>32</dim>
					<dim>1</dim>
					<dim>3</dim>
					<dim>3</dim>
				</port>
			</output>
		</layer>
		<layer id="50" name="Constant_307" type="Const" version="opset1">
			<data element_type="i64" shape="1" offset="3296" size="8" />
			<rt_info>
				<attribute name="precise" version="0" />
			</rt_info>
			<output>
				<port id="0" precision="I64">
					<dim>1</dim>
				</port>
			</output>
		</layer>
		<layer id="51" name="ShapeOf_308" type="ShapeOf" version="opset3">
			<data output_type="i64" />
			<input>
				<port id="0" precision="FP32">
					<dim>32</dim>
					<dim>1</dim>
					<dim>3</dim>
					<dim>3</dim>
				</port>
			</input>
			<output>
				<port id="1" precision="I64">
					<dim>4</dim>
				</port>
			</output>
		</layer>
		<layer id="52" name="Constant_305" type="Const" version="opset1">
			<data element_type="i64" shape="" offset="1288" size="8" />
			<rt_info>
				<attribute name="precise" version="0" />
			</rt_info>
			<output>
				<port id="0" precision="I64" />
			</output>
		</layer>
		<layer id="53" name="Constant_306" type="Const" version="opset1">
			<data element_type="i64" shape="2" offset="1296" size="16" />
			<rt_info>
				<attribute name="precise" version="0" />
			</rt_info>
			<output>
				<port id="0" precision="I64">
					<dim>2</dim>
				</port>
			</output>
		</layer>
		<layer id="54" name="VariadicSplit_309" type="VariadicSplit" version="opset1">
			<input>
				<port id="0" precision="I64">
					<dim>4</dim>
				</port>
				<port id="1" precision="I64" />
				<port id="2" precision="I64">
					<dim>2</dim>
				</port>
			</input>
			<output>
				<port id="3" precision="I64">
					<dim>1</dim>
				</port>
				<port id="4" precision="I64">
					<dim>3</dim>
				</port>
			</output>
		</layer>
		<layer id="55" name="Divide_310" type="Divide" version="opset1">
			<data auto_broadcast="numpy" m_pythondiv="true" />
			<input>
				<port id="0" precision="I64">
					<dim>1</dim>
				</port>
				<port id="1" precision="I64">
					<dim>1</dim>
				</port>
			</input>
			<output>
				<port id="2" precision="I64">
					<dim>1</dim>
				</port>
			</output>
		</layer>
		<layer id="56" name="Concat_311" type="Concat" version="opset1">
			<data axis="0" />
			<input>
				<port id="0" precision="I64">
					<dim>1</dim>
				</port>
				<port id="1" precision="I64">
					<dim>1</dim>
				</port>
				<port id="2" precision="I64">
					<dim>3</dim>
				</port>
			</input>
			<output>
				<port id="3" precision="I64">
					<dim>5</dim>
				</port>
			</output>
		</layer>
		<layer id="57" name="Reshape_312" type="Reshape" version="opset1">
			<data special_zero="false" />
			<input>
				<port id="0" precision="FP32">
					<dim>32</dim>
					<dim>1</dim>
					<dim>3</dim>
					<dim>3</dim>
				</port>
				<port id="1" precision="I64">
					<dim>5</dim>
				</port>
			</input>
			<output>
				<port id="2" precision="FP32">
					<dim>32</dim>
					<dim>1</dim>
					<dim>1</dim>
					<dim>3</dim>
					<dim>3</dim>
				</port>
			</output>
		</layer>
		<layer id="58" name="254" type="GroupConvolution" version="opset1">
			<data strides="2, 2" pads_begin="1, 1" pads_end="1, 1" dilations="1, 1" auto_pad="explicit" />
			<input>
				<port id="0" precision="FP32">
					<dim>1</dim>
					<dim>32</dim>
					<dim>120</dim>
					<dim>160</dim>
				</port>
				<port id="1" precision="FP32">
					<dim>32</dim>
					<dim>1</dim>
					<dim>1</dim>
					<dim>3</dim>
					<dim>3</dim>
				</port>
			</input>
			<output>
				<port id="2" precision="FP32" names="254">
					<dim>1</dim>
					<dim>32</dim>
					<dim>60</dim>
					<dim>80</dim>
				</port>
			</output>
		</layer>
		<layer id="59" name="base_net.2.1.weight_compressed" type="Const" version="opset1">
			<data element_type="f16" shape="32" offset="3304" size="64" />
			<output>
				<port id="0" precision="FP16" names="base_net.2.1.weight">
					<dim>32</dim>
				</port>
			</output>
		</layer>
		<layer id="60" name="base_net.2.1.weight" type="Convert" version="opset1">
			<data destination_type="f32" />
			<rt_info>
				<attribute name="decompression" version="0" />
			</rt_info>
			<input>
				<port id="0" precision="FP16">
					<dim>32</dim>
				</port>
			</input>
			<output>
				<port id="1" precision="FP32">
					<dim>32</dim>
				</port>
			</output>
		</layer>
		<layer id="61" name="base_net.2.1.bias_compressed" type="Const" version="opset1">
			<data element_type="f16" shape="32" offset="3368" size="64" />
			<output>
				<port id="0" precision="FP16" names="base_net.2.1.bias">
					<dim>32</dim>
				</port>
			</output>
		</layer>
		<layer id="62" name="base_net.2.1.bias" type="Convert" version="opset1">
			<data destination_type="f32" />
			<rt_info>
				<attribute name="decompression" version="0" />
			</rt_info>
			<input>
				<port id="0" precision="FP16">
					<dim>32</dim>
				</port>
			</input>
			<output>
				<port id="1" precision="FP32">
					<dim>32</dim>
				</port>
			</output>
		</layer>
		<layer id="63" name="base_net.2.1.running_mean_compressed" type="Const" version="opset1">
			<data element_type="f16" shape="32" offset="3432" size="64" />
			<output>
				<port id="0" precision="FP16" names="base_net.2.1.running_mean">
					<dim>32</dim>
				</port>
			</output>
		</layer>
		<layer id="64" name="base_net.2.1.running_mean" type="Convert" version="opset1">
			<data destination_type="f32" />
			<rt_info>
				<attribute name="decompression" version="0" />
			</rt_info>
			<input>
				<port id="0" precision="FP16">
					<dim>32</dim>
				</port>
			</input>
			<output>
				<port id="1" precision="FP32">
					<dim>32</dim>
				</port>
			</output>
		</layer>
		<layer id="65" name="base_net.2.1.running_var_compressed" type="Const" version="opset1">
			<data element_type="f16" shape="32" offset="3496" size="64" />
			<output>
				<port id="0" precision="FP16" names="base_net.2.1.running_var">
					<dim>32</dim>
				</port>
			</output>
		</layer>
		<layer id="66" name="base_net.2.1.running_var" type="Convert" version="opset1">
			<data destination_type="f32" />
			<rt_info>
				<attribute name="decompression" version="0" />
			</rt_info>
			<input>
				<port id="0" precision="FP16">
					<dim>32</dim>
				</port>
			</input>
			<output>
				<port id="1" precision="FP32">
					<dim>32</dim>
				</port>
			</output>
		</layer>
		<layer id="67" name="255" type="BatchNormInference" version="opset5">
			<data epsilon="9.9999997473787516e-06" />
			<input>
				<port id="0" precision="FP32">
					<dim>1</dim>
					<dim>32</dim>
					<dim>60</dim>
					<dim>80</dim>
				</port>
				<port id="1" precision="FP32">
					<dim>32</dim>
				</port>
				<port id="2" precision="FP32">
					<dim>32</dim>
				</port>
				<port id="3" precision="FP32">
					<dim>32</dim>
				</port>
				<port id="4" precision="FP32">
					<dim>32</dim>
				</port>
			</input>
			<output>
				<port id="5" precision="FP32" names="255">
					<dim>1</dim>
					<dim>32</dim>
					<dim>60</dim>
					<dim>80</dim>
				</port>
			</output>
		</layer>
		<layer id="68" name="256" type="ReLU" version="opset1">
			<input>
				<port id="0" precision="FP32">
					<dim>1</dim>
					<dim>32</dim>
					<dim>60</dim>
					<dim>80</dim>
				</port>
			</input>
			<output>
				<port id="1" precision="FP32" names="256">
					<dim>1</dim>
					<dim>32</dim>
					<dim>60</dim>
					<dim>80</dim>
				</port>
			</output>
		</layer>
		<layer id="69" name="base_net.2.3.weight_compressed" type="Const" version="opset1">
			<data element_type="f16" shape="32, 32, 1, 1" offset="3560" size="2048" />
			<output>
				<port id="0" precision="FP16" names="base_net.2.3.weight">
					<dim>32</dim>
					<dim>32</dim>
					<dim>1</dim>
					<dim>1</dim>
				</port>
			</output>
		</layer>
		<layer id="70" name="base_net.2.3.weight" type="Convert" version="opset1">
			<data destination_type="f32" />
			<rt_info>
				<attribute name="decompression" version="0" />
			</rt_info>
			<input>
				<port id="0" precision="FP16">
					<dim>32</dim>
					<dim>32</dim>
					<dim>1</dim>
					<dim>1</dim>
				</port>
			</input>
			<output>
				<port id="1" precision="FP32">
					<dim>32</dim>
					<dim>32</dim>
					<dim>1</dim>
					<dim>1</dim>
				</port>
			</output>
		</layer>
		<layer id="71" name="257" type="Convolution" version="opset1">
			<data strides="1, 1" dilations="1, 1" pads_begin="0, 0" pads_end="0, 0" auto_pad="explicit" />
			<input>
				<port id="0" precision="FP32">
					<dim>1</dim>
					<dim>32</dim>
					<dim>60</dim>
					<dim>80</dim>
				</port>
				<port id="1" precision="FP32">
					<dim>32</dim>
					<dim>32</dim>
					<dim>1</dim>
					<dim>1</dim>
				</port>
			</input>
			<output>
				<port id="2" precision="FP32" names="257">
					<dim>1</dim>
					<dim>32</dim>
					<dim>60</dim>
					<dim>80</dim>
				</port>
			</output>
		</layer>
		<layer id="72" name="base_net.2.4.weight_compressed" type="Const" version="opset1">
			<data element_type="f16" shape="32" offset="5608" size="64" />
			<output>
				<port id="0" precision="FP16" names="base_net.2.4.weight">
					<dim>32</dim>
				</port>
			</output>
		</layer>
		<layer id="73" name="base_net.2.4.weight" type="Convert" version="opset1">
			<data destination_type="f32" />
			<rt_info>
				<attribute name="decompression" version="0" />
			</rt_info>
			<input>
				<port id="0" precision="FP16">
					<dim>32</dim>
				</port>
			</input>
			<output>
				<port id="1" precision="FP32">
					<dim>32</dim>
				</port>
			</output>
		</layer>
		<layer id="74" name="base_net.2.4.bias_compressed" type="Const" version="opset1">
			<data element_type="f16" shape="32" offset="5672" size="64" />
			<output>
				<port id="0" precision="FP16" names="base_net.2.4.bias">
					<dim>32</dim>
				</port>
			</output>
		</layer>
		<layer id="75" name="base_net.2.4.bias" type="Convert" version="opset1">
			<data destination_type="f32" />
			<rt_info>
				<attribute name="decompression" version="0" />
			</rt_info>
			<input>
				<port id="0" precision="FP16">
					<dim>32</dim>
				</port>
			</input>
			<output>
				<port id="1" precision="FP32">
					<dim>32</dim>
				</port>
			</output>
		</layer>
		<layer id="76" name="base_net.2.4.running_mean_compressed" type="Const" version="opset1">
			<data element_type="f16" shape="32" offset="5736" size="64" />
			<output>
				<port id="0" precision="FP16" names="base_net.2.4.running_mean">
					<dim>32</dim>
				</port>
			</output>
		</layer>
		<layer id="77" name="base_net.2.4.running_mean" type="Convert" version="opset1">
			<data destination_type="f32" />
			<rt_info>
				<attribute name="decompression" version="0" />
			</rt_info>
			<input>
				<port id="0" precision="FP16">
					<dim>32</dim>
				</port>
			</input>
			<output>
				<port id="1" precision="FP32">
					<dim>32</dim>
				</port>
			</output>
		</layer>
		<layer id="78" name="base_net.2.4.running_var_compressed" type="Const" version="opset1">
			<data element_type="f16" shape="32" offset="5800" size="64" />
			<output>
				<port id="0" precision="FP16" names="base_net.2.4.running_var">
					<dim>32</dim>
				</port>
			</output>
		</layer>
		<layer id="79" name="base_net.2.4.running_var" type="Convert" version="opset1">
			<data destination_type="f32" />
			<rt_info>
				<attribute name="decompression" version="0" />
			</rt_info>
			<input>
				<port id="0" precision="FP16">
					<dim>32</dim>
				</port>
			</input>
			<output>
				<port id="1" precision="FP32">
					<dim>32</dim>
				</port>
			</output>
		</layer>
		<layer id="80" name="258" type="BatchNormInference" version="opset5">
			<data epsilon="9.9999997473787516e-06" />
			<input>
				<port id="0" precision="FP32">
					<dim>1</dim>
					<dim>32</dim>
					<dim>60</dim>
					<dim>80</dim>
				</port>
				<port id="1" precision="FP32">
					<dim>32</dim>
				</port>
				<port id="2" precision="FP32">
					<dim>32</dim>
				</port>
				<port id="3" precision="FP32">
					<dim>32</dim>
				</port>
				<port id="4" precision="FP32">
					<dim>32</dim>
				</port>
			</input>
			<output>
				<port id="5" precision="FP32" names="258">
					<dim>1</dim>
					<dim>32</dim>
					<dim>60</dim>
					<dim>80</dim>
				</port>
			</output>
		</layer>
		<layer id="81" name="259" type="ReLU" version="opset1">
			<input>
				<port id="0" precision="FP32">
					<dim>1</dim>
					<dim>32</dim>
					<dim>60</dim>
					<dim>80</dim>
				</port>
			</input>
			<output>
				<port id="1" precision="FP32" names="259">
					<dim>1</dim>
					<dim>32</dim>
					<dim>60</dim>
					<dim>80</dim>
				</port>
			</output>
		</layer>
		<layer id="82" name="base_net.3.0.weight_compressed" type="Const" version="opset1">
			<data element_type="f16" shape="32, 1, 3, 3" offset="5864" size="576" />
			<output>
				<port id="0" precision="FP16" names="base_net.3.0.weight">
					<dim>32</dim>
					<dim>1</dim>
					<dim>3</dim>
					<dim>3</dim>
				</port>
			</output>
		</layer>
		<layer id="83" name="base_net.3.0.weight" type="Convert" version="opset1">
			<data destination_type="f32" />
			<rt_info>
				<attribute name="decompression" version="0" />
			</rt_info>
			<input>
				<port id="0" precision="FP16">
					<dim>32</dim>
					<dim>1</dim>
					<dim>3</dim>
					<dim>3</dim>
				</port>
			</input>
			<output>
				<port id="1" precision="FP32">
					<dim>32</dim>
					<dim>1</dim>
					<dim>3</dim>
					<dim>3</dim>
				</port>
			</output>
		</layer>
		<layer id="84" name="Constant_361" type="Const" version="opset1">
			<data element_type="i64" shape="1" offset="3296" size="8" />
			<rt_info>
				<attribute name="precise" version="0" />
			</rt_info>
			<output>
				<port id="0" precision="I64">
					<dim>1</dim>
				</port>
			</output>
		</layer>
		<layer id="85" name="ShapeOf_362" type="ShapeOf" version="opset3">
			<data output_type="i64" />
			<input>
				<port id="0" precision="FP32">
					<dim>32</dim>
					<dim>1</dim>
					<dim>3</dim>
					<dim>3</dim>
				</port>
			</input>
			<output>
				<port id="1" precision="I64">
					<dim>4</dim>
				</port>
			</output>
		</layer>
		<layer id="86" name="Constant_359" type="Const" version="opset1">
			<data element_type="i64" shape="" offset="1288" size="8" />
			<rt_info>
				<attribute name="precise" version="0" />
			</rt_info>
			<output>
				<port id="0" precision="I64" />
			</output>
		</layer>
		<layer id="87" name="Constant_360" type="Const" version="opset1">
			<data element_type="i64" shape="2" offset="1296" size="16" />
			<rt_info>
				<attribute name="precise" version="0" />
			</rt_info>
			<output>
				<port id="0" precision="I64">
					<dim>2</dim>
				</port>
			</output>
		</layer>
		<layer id="88" name="VariadicSplit_363" type="VariadicSplit" version="opset1">
			<input>
				<port id="0" precision="I64">
					<dim>4</dim>
				</port>
				<port id="1" precision="I64" />
				<port id="2" precision="I64">
					<dim>2</dim>
				</port>
			</input>
			<output>
				<port id="3" precision="I64">
					<dim>1</dim>
				</port>
				<port id="4" precision="I64">
					<dim>3</dim>
				</port>
			</output>
		</layer>
		<layer id="89" name="Divide_364" type="Divide" version="opset1">
			<data auto_broadcast="numpy" m_pythondiv="true" />
			<input>
				<port id="0" precision="I64">
					<dim>1</dim>
				</port>
				<port id="1" precision="I64">
					<dim>1</dim>
				</port>
			</input>
			<output>
				<port id="2" precision="I64">
					<dim>1</dim>
				</port>
			</output>
		</layer>
		<layer id="90" name="Concat_365" type="Concat" version="opset1">
			<data axis="0" />
			<input>
				<port id="0" precision="I64">
					<dim>1</dim>
				</port>
				<port id="1" precision="I64">
					<dim>1</dim>
				</port>
				<port id="2" precision="I64">
					<dim>3</dim>
				</port>
			</input>
			<output>
				<port id="3" precision="I64">
					<dim>5</dim>
				</port>
			</output>
		</layer>
		<layer id="91" name="Reshape_366" type="Reshape" version="opset1">
			<data special_zero="false" />
			<input>
				<port id="0" precision="FP32">
					<dim>32</dim>
					<dim>1</dim>
					<dim>3</dim>
					<dim>3</dim>
				</port>
				<port id="1" precision="I64">
					<dim>5</dim>
				</port>
			</input>
			<output>
				<port id="2" precision="FP32">
					<dim>32</dim>
					<dim>1</dim>
					<dim>1</dim>
					<dim>3</dim>
					<dim>3</dim>
				</port>
			</output>
		</layer>
		<layer id="92" name="260" type="GroupConvolution" version="opset1">
			<data strides="1, 1" pads_begin="1, 1" pads_end="1, 1" dilations="1, 1" auto_pad="explicit" />
			<input>
				<port id="0" precision="FP32">
					<dim>1</dim>
					<dim>32</dim>
					<dim>60</dim>
					<dim>80</dim>
				</port>
				<port id="1" precision="FP32">
					<dim>32</dim>
					<dim>1</dim>
					<dim>1</dim>
					<dim>3</dim>
					<dim>3</dim>
				</port>
			</input>
			<output>
				<port id="2" precision="FP32" names="260">
					<dim>1</dim>
					<dim>32</dim>
					<dim>60</dim>
					<dim>80</dim>
				</port>
			</output>
		</layer>
		<layer id="93" name="base_net.3.1.weight_compressed" type="Const" version="opset1">
			<data element_type="f16" shape="32" offset="6440" size="64" />
			<output>
				<port id="0" precision="FP16" names="base_net.3.1.weight">
					<dim>32</dim>
				</port>
			</output>
		</layer>
		<layer id="94" name="base_net.3.1.weight" type="Convert" version="opset1">
			<data destination_type="f32" />
			<rt_info>
				<attribute name="decompression" version="0" />
			</rt_info>
			<input>
				<port id="0" precision="FP16">
					<dim>32</dim>
				</port>
			</input>
			<output>
				<port id="1" precision="FP32">
					<dim>32</dim>
				</port>
			</output>
		</layer>
		<layer id="95" name="base_net.3.1.bias_compressed" type="Const" version="opset1">
			<data element_type="f16" shape="32" offset="6504" size="64" />
			<output>
				<port id="0" precision="FP16" names="base_net.3.1.bias">
					<dim>32</dim>
				</port>
			</output>
		</layer>
		<layer id="96" name="base_net.3.1.bias" type="Convert" version="opset1">
			<data destination_type="f32" />
			<rt_info>
				<attribute name="decompression" version="0" />
			</rt_info>
			<input>
				<port id="0" precision="FP16">
					<dim>32</dim>
				</port>
			</input>
			<output>
				<port id="1" precision="FP32">
					<dim>32</dim>
				</port>
			</output>
		</layer>
		<layer id="97" name="base_net.3.1.running_mean_compressed" type="Const" version="opset1">
			<data element_type="f16" shape="32" offset="6568" size="64" />
			<output>
				<port id="0" precision="FP16" names="base_net.3.1.running_mean">
					<dim>32</dim>
				</port>
			</output>
		</layer>
		<layer id="98" name="base_net.3.1.running_mean" type="Convert" version="opset1">
			<data destination_type="f32" />
			<rt_info>
				<attribute name="decompression" version="0" />
			</rt_info>
			<input>
				<port id="0" precision="FP16">
					<dim>32</dim>
				</port>
			</input>
			<output>
				<port id="1" precision="FP32">
					<dim>32</dim>
				</port>
			</output>
		</layer>
		<layer id="99" name="base_net.3.1.running_var_compressed" type="Const" version="opset1">
			<data element_type="f16" shape="32" offset="6632" size="64" />
			<output>
				<port id="0" precision="FP16" names="base_net.3.1.running_var">
					<dim>32</dim>
				</port>
			</output>
		</layer>
		<layer id="100" name="base_net.3.1.running_var" type="Convert" version="opset1">
			<data destination_type="f32" />
			<rt_info>
				<attribute name="decompression" version="0" />
			</rt_info>
			<input>
				<port id="0" precision="FP16">
					<dim>32</dim>
				</port>
			</input>
			<output>
				<port id="1" precision="FP32">
					<dim>32</dim>
				</port>
			</output>
		</layer>
		<layer id="101" name="261" type="BatchNormInference" version="opset5">
			<data epsilon="9.9999997473787516e-06" />
			<input>
				<port id="0" precision="FP32">
					<dim>1</dim>
					<dim>32</dim>
					<dim>60</dim>
					<dim>80</dim>
				</port>
				<port id="1" precision="FP32">
					<dim>32</dim>
				</port>
				<port id="2" precision="FP32">
					<dim>32</dim>
				</port>
				<port id="3" precision="FP32">
					<dim>32</dim>
				</port>
				<port id="4" precision="FP32">
					<dim>32</dim>
				</port>
			</input>
			<output>
				<port id="5" precision="FP32" names="261">
					<dim>1</dim>
					<dim>32</dim>
					<dim>60</dim>
					<dim>80</dim>
				</port>
			</output>
		</layer>
		<layer id="102" name="262" type="ReLU" version="opset1">
			<input>
				<port id="0" precision="FP32">
					<dim>1</dim>
					<dim>32</dim>
					<dim>60</dim>
					<dim>80</dim>
				</port>
			</input>
			<output>
				<port id="1" precision="FP32" names="262">
					<dim>1</dim>
					<dim>32</dim>
					<dim>60</dim>
					<dim>80</dim>
				</port>
			</output>
		</layer>
		<layer id="103" name="base_net.3.3.weight_compressed" type="Const" version="opset1">
			<data element_type="f16" shape="32, 32, 1, 1" offset="6696" size="2048" />
			<output>
				<port id="0" precision="FP16" names="base_net.3.3.weight">
					<dim>32</dim>
					<dim>32</dim>
					<dim>1</dim>
					<dim>1</dim>
				</port>
			</output>
		</layer>
		<layer id="104" name="base_net.3.3.weight" type="Convert" version="opset1">
			<data destination_type="f32" />
			<rt_info>
				<attribute name="decompression" version="0" />
			</rt_info>
			<input>
				<port id="0" precision="FP16">
					<dim>32</dim>
					<dim>32</dim>
					<dim>1</dim>
					<dim>1</dim>
				</port>
			</input>
			<output>
				<port id="1" precision="FP32">
					<dim>32</dim>
					<dim>32</dim>
					<dim>1</dim>
					<dim>1</dim>
				</port>
			</output>
		</layer>
		<layer id="105" name="263" type="Convolution" version="opset1">
			<data strides="1, 1" dilations="1, 1" pads_begin="0, 0" pads_end="0, 0" auto_pad="explicit" />
			<input>
				<port id="0" precision="FP32">
					<dim>1</dim>
					<dim>32</dim>
					<dim>60</dim>
					<dim>80</dim>
				</port>
				<port id="1" precision="FP32">
					<dim>32</dim>
					<dim>32</dim>
					<dim>1</dim>
					<dim>1</dim>
				</port>
			</input>
			<output>
				<port id="2" precision="FP32" names="263">
					<dim>1</dim>
					<dim>32</dim>
					<dim>60</dim>
					<dim>80</dim>
				</port>
			</output>
		</layer>
		<layer id="106" name="base_net.3.4.weight_compressed" type="Const" version="opset1">
			<data element_type="f16" shape="32" offset="8744" size="64" />
			<output>
				<port id="0" precision="FP16" names="base_net.3.4.weight">
					<dim>32</dim>
				</port>
			</output>
		</layer>
		<layer id="107" name="base_net.3.4.weight" type="Convert" version="opset1">
			<data destination_type="f32" />
			<rt_info>
				<attribute name="decompression" version="0" />
			</rt_info>
			<input>
				<port id="0" precision="FP16">
					<dim>32</dim>
				</port>
			</input>
			<output>
				<port id="1" precision="FP32">
					<dim>32</dim>
				</port>
			</output>
		</layer>
		<layer id="108" name="base_net.3.4.bias_compressed" type="Const" version="opset1">
			<data element_type="f16" shape="32" offset="8808" size="64" />
			<output>
				<port id="0" precision="FP16" names="base_net.3.4.bias">
					<dim>32</dim>
				</port>
			</output>
		</layer>
		<layer id="109" name="base_net.3.4.bias" type="Convert" version="opset1">
			<data destination_type="f32" />
			<rt_info>
				<attribute name="decompression" version="0" />
			</rt_info>
			<input>
				<port id="0" precision="FP16">
					<dim>32</dim>
				</port>
			</input>
			<output>
				<port id="1" precision="FP32">
					<dim>32</dim>
				</port>
			</output>
		</layer>
		<layer id="110" name="base_net.3.4.running_mean_compressed" type="Const" version="opset1">
			<data element_type="f16" shape="32" offset="8872" size="64" />
			<output>
				<port id="0" precision="FP16" names="base_net.3.4.running_mean">
					<dim>32</dim>
				</port>
			</output>
		</layer>
		<layer id="111" name="base_net.3.4.running_mean" type="Convert" version="opset1">
			<data destination_type="f32" />
			<rt_info>
				<attribute name="decompression" version="0" />
			</rt_info>
			<input>
				<port id="0" precision="FP16">
					<dim>32</dim>
				</port>
			</input>
			<output>
				<port id="1" precision="FP32">
					<dim>32</dim>
				</port>
			</output>
		</layer>
		<layer id="112" name="base_net.3.4.running_var_compressed" type="Const" version="opset1">
			<data element_type="f16" shape="32" offset="8936" size="64" />
			<output>
				<port id="0" precision="FP16" names="base_net.3.4.running_var">
					<dim>32</dim>
				</port>
			</output>
		</layer>
		<layer id="113" name="base_net.3.4.running_var" type="Convert" version="opset1">
			<data destination_type="f32" />
			<rt_info>
				<attribute name="decompression" version="0" />
			</rt_info>
			<input>
				<port id="0" precision="FP16">
					<dim>32</dim>
				</port>
			</input>
			<output>
				<port id="1" precision="FP32">
					<dim>32</dim>
				</port>
			</output>
		</layer>
		<layer id="114" name="264" type="BatchNormInference" version="opset5">
			<data epsilon="9.9999997473787516e-06" />
			<input>
				<port id="0" precision="FP32">
					<dim>1</dim>
					<dim>32</dim>
					<dim>60</dim>
					<dim>80</dim>
				</port>
				<port id="1" precision="FP32">
					<dim>32</dim>
				</port>
				<port id="2" precision="FP32">
					<dim>32</dim>
				</port>
				<port id="3" precision="FP32">
					<dim>32</dim>
				</port>
				<port id="4" precision="FP32">
					<dim>32</dim>
				</port>
			</input>
			<output>
				<port id="5" precision="FP32" names="264">
					<dim>1</dim>
					<dim>32</dim>
					<dim>60</dim>
					<dim>80</dim>
				</port>
			</output>
		</layer>
		<layer id="115" name="265" type="ReLU" version="opset1">
			<input>
				<port id="0" precision="FP32">
					<dim>1</dim>
					<dim>32</dim>
					<dim>60</dim>
					<dim>80</dim>
				</port>
			</input>
			<output>
				<port id="1" precision="FP32" names="265">
					<dim>1</dim>
					<dim>32</dim>
					<dim>60</dim>
					<dim>80</dim>
				</port>
			</output>
		</layer>
		<layer id="116" name="base_net.4.0.weight_compressed" type="Const" version="opset1">
			<data element_type="f16" shape="32, 1, 3, 3" offset="9000" size="576" />
			<output>
				<port id="0" precision="FP16" names="base_net.4.0.weight">
					<dim>32</dim>
					<dim>1</dim>
					<dim>3</dim>
					<dim>3</dim>
				</port>
			</output>
		</layer>
		<layer id="117" name="base_net.4.0.weight" type="Convert" version="opset1">
			<data destination_type="f32" />
			<rt_info>
				<attribute name="decompression" version="0" />
			</rt_info>
			<input>
				<port id="0" precision="FP16">
					<dim>32</dim>
					<dim>1</dim>
					<dim>3</dim>
					<dim>3</dim>
				</port>
			</input>
			<output>
				<port id="1" precision="FP32">
					<dim>32</dim>
					<dim>1</dim>
					<dim>3</dim>
					<dim>3</dim>
				</port>
			</output>
		</layer>
		<layer id="118" name="Constant_415" type="Const" version="opset1">
			<data element_type="i64" shape="1" offset="3296" size="8" />
			<rt_info>
				<attribute name="precise" version="0" />
			</rt_info>
			<output>
				<port id="0" precision="I64">
					<dim>1</dim>
				</port>
			</output>
		</layer>
		<layer id="119" name="ShapeOf_416" type="ShapeOf" version="opset3">
			<data output_type="i64" />
			<input>
				<port id="0" precision="FP32">
					<dim>32</dim>
					<dim>1</dim>
					<dim>3</dim>
					<dim>3</dim>
				</port>
			</input>
			<output>
				<port id="1" precision="I64">
					<dim>4</dim>
				</port>
			</output>
		</layer>
		<layer id="120" name="Constant_413" type="Const" version="opset1">
			<data element_type="i64" shape="" offset="1288" size="8" />
			<rt_info>
				<attribute name="precise" version="0" />
			</rt_info>
			<output>
				<port id="0" precision="I64" />
			</output>
		</layer>
		<layer id="121" name="Constant_414" type="Const" version="opset1">
			<data element_type="i64" shape="2" offset="1296" size="16" />
			<rt_info>
				<attribute name="precise" version="0" />
			</rt_info>
			<output>
				<port id="0" precision="I64">
					<dim>2</dim>
				</port>
			</output>
		</layer>
		<layer id="122" name="VariadicSplit_417" type="VariadicSplit" version="opset1">
			<input>
				<port id="0" precision="I64">
					<dim>4</dim>
				</port>
				<port id="1" precision="I64" />
				<port id="2" precision="I64">
					<dim>2</dim>
				</port>
			</input>
			<output>
				<port id="3" precision="I64">
					<dim>1</dim>
				</port>
				<port id="4" precision="I64">
					<dim>3</dim>
				</port>
			</output>
		</layer>
		<layer id="123" name="Divide_418" type="Divide" version="opset1">
			<data auto_broadcast="numpy" m_pythondiv="true" />
			<input>
				<port id="0" precision="I64">
					<dim>1</dim>
				</port>
				<port id="1" precision="I64">
					<dim>1</dim>
				</port>
			</input>
			<output>
				<port id="2" precision="I64">
					<dim>1</dim>
				</port>
			</output>
		</layer>
		<layer id="124" name="Concat_419" type="Concat" version="opset1">
			<data axis="0" />
			<input>
				<port id="0" precision="I64">
					<dim>1</dim>
				</port>
				<port id="1" precision="I64">
					<dim>1</dim>
				</port>
				<port id="2" precision="I64">
					<dim>3</dim>
				</port>
			</input>
			<output>
				<port id="3" precision="I64">
					<dim>5</dim>
				</port>
			</output>
		</layer>
		<layer id="125" name="Reshape_420" type="Reshape" version="opset1">
			<data special_zero="false" />
			<input>
				<port id="0" precision="FP32">
					<dim>32</dim>
					<dim>1</dim>
					<dim>3</dim>
					<dim>3</dim>
				</port>
				<port id="1" precision="I64">
					<dim>5</dim>
				</port>
			</input>
			<output>
				<port id="2" precision="FP32">
					<dim>32</dim>
					<dim>1</dim>
					<dim>1</dim>
					<dim>3</dim>
					<dim>3</dim>
				</port>
			</output>
		</layer>
		<layer id="126" name="266" type="GroupConvolution" version="opset1">
			<data strides="2, 2" pads_begin="1, 1" pads_end="1, 1" dilations="1, 1" auto_pad="explicit" />
			<input>
				<port id="0" precision="FP32">
					<dim>1</dim>
					<dim>32</dim>
					<dim>60</dim>
					<dim>80</dim>
				</port>
				<port id="1" precision="FP32">
					<dim>32</dim>
					<dim>1</dim>
					<dim>1</dim>
					<dim>3</dim>
					<dim>3</dim>
				</port>
			</input>
			<output>
				<port id="2" precision="FP32" names="266">
					<dim>1</dim>
					<dim>32</dim>
					<dim>30</dim>
					<dim>40</dim>
				</port>
			</output>
		</layer>
		<layer id="127" name="base_net.4.1.weight_compressed" type="Const" version="opset1">
			<data element_type="f16" shape="32" offset="9576" size="64" />
			<output>
				<port id="0" precision="FP16" names="base_net.4.1.weight">
					<dim>32</dim>
				</port>
			</output>
		</layer>
		<layer id="128" name="base_net.4.1.weight" type="Convert" version="opset1">
			<data destination_type="f32" />
			<rt_info>
				<attribute name="decompression" version="0" />
			</rt_info>
			<input>
				<port id="0" precision="FP16">
					<dim>32</dim>
				</port>
			</input>
			<output>
				<port id="1" precision="FP32">
					<dim>32</dim>
				</port>
			</output>
		</layer>
		<layer id="129" name="base_net.4.1.bias_compressed" type="Const" version="opset1">
			<data element_type="f16" shape="32" offset="9640" size="64" />
			<output>
				<port id="0" precision="FP16" names="base_net.4.1.bias">
					<dim>32</dim>
				</port>
			</output>
		</layer>
		<layer id="130" name="base_net.4.1.bias" type="Convert" version="opset1">
			<data destination_type="f32" />
			<rt_info>
				<attribute name="decompression" version="0" />
			</rt_info>
			<input>
				<port id="0" precision="FP16">
					<dim>32</dim>
				</port>
			</input>
			<output>
				<port id="1" precision="FP32">
					<dim>32</dim>
				</port>
			</output>
		</layer>
		<layer id="131" name="base_net.4.1.running_mean_compressed" type="Const" version="opset1">
			<data element_type="f16" shape="32" offset="9704" size="64" />
			<output>
				<port id="0" precision="FP16" names="base_net.4.1.running_mean">
					<dim>32</dim>
				</port>
			</output>
		</layer>
		<layer id="132" name="base_net.4.1.running_mean" type="Convert" version="opset1">
			<data destination_type="f32" />
			<rt_info>
				<attribute name="decompression" version="0" />
			</rt_info>
			<input>
				<port id="0" precision="FP16">
					<dim>32</dim>
				</port>
			</input>
			<output>
				<port id="1" precision="FP32">
					<dim>32</dim>
				</port>
			</output>
		</layer>
		<layer id="133" name="base_net.4.1.running_var_compressed" type="Const" version="opset1">
			<data element_type="f16" shape="32" offset="9768" size="64" />
			<output>
				<port id="0" precision="FP16" names="base_net.4.1.running_var">
					<dim>32</dim>
				</port>
			</output>
		</layer>
		<layer id="134" name="base_net.4.1.running_var" type="Convert" version="opset1">
			<data destination_type="f32" />
			<rt_info>
				<attribute name="decompression" version="0" />
			</rt_info>
			<input>
				<port id="0" precision="FP16">
					<dim>32</dim>
				</port>
			</input>
			<output>
				<port id="1" precision="FP32">
					<dim>32</dim>
				</port>
			</output>
		</layer>
		<layer id="135" name="267" type="BatchNormInference" version="opset5">
			<data epsilon="9.9999997473787516e-06" />
			<input>
				<port id="0" precision="FP32">
					<dim>1</dim>
					<dim>32</dim>
					<dim>30</dim>
					<dim>40</dim>
				</port>
				<port id="1" precision="FP32">
					<dim>32</dim>
				</port>
				<port id="2" precision="FP32">
					<dim>32</dim>
				</port>
				<port id="3" precision="FP32">
					<dim>32</dim>
				</port>
				<port id="4" precision="FP32">
					<dim>32</dim>
				</port>
			</input>
			<output>
				<port id="5" precision="FP32" names="267">
					<dim>1</dim>
					<dim>32</dim>
					<dim>30</dim>
					<dim>40</dim>
				</port>
			</output>
		</layer>
		<layer id="136" name="268" type="ReLU" version="opset1">
			<input>
				<port id="0" precision="FP32">
					<dim>1</dim>
					<dim>32</dim>
					<dim>30</dim>
					<dim>40</dim>
				</port>
			</input>
			<output>
				<port id="1" precision="FP32" names="268">
					<dim>1</dim>
					<dim>32</dim>
					<dim>30</dim>
					<dim>40</dim>
				</port>
			</output>
		</layer>
		<layer id="137" name="base_net.4.3.weight_compressed" type="Const" version="opset1">
			<data element_type="f16" shape="64, 32, 1, 1" offset="9832" size="4096" />
			<output>
				<port id="0" precision="FP16" names="base_net.4.3.weight">
					<dim>64</dim>
					<dim>32</dim>
					<dim>1</dim>
					<dim>1</dim>
				</port>
			</output>
		</layer>
		<layer id="138" name="base_net.4.3.weight" type="Convert" version="opset1">
			<data destination_type="f32" />
			<rt_info>
				<attribute name="decompression" version="0" />
			</rt_info>
			<input>
				<port id="0" precision="FP16">
					<dim>64</dim>
					<dim>32</dim>
					<dim>1</dim>
					<dim>1</dim>
				</port>
			</input>
			<output>
				<port id="1" precision="FP32">
					<dim>64</dim>
					<dim>32</dim>
					<dim>1</dim>
					<dim>1</dim>
				</port>
			</output>
		</layer>
		<layer id="139" name="269" type="Convolution" version="opset1">
			<data strides="1, 1" dilations="1, 1" pads_begin="0, 0" pads_end="0, 0" auto_pad="explicit" />
			<input>
				<port id="0" precision="FP32">
					<dim>1</dim>
					<dim>32</dim>
					<dim>30</dim>
					<dim>40</dim>
				</port>
				<port id="1" precision="FP32">
					<dim>64</dim>
					<dim>32</dim>
					<dim>1</dim>
					<dim>1</dim>
				</port>
			</input>
			<output>
				<port id="2" precision="FP32" names="269">
					<dim>1</dim>
					<dim>64</dim>
					<dim>30</dim>
					<dim>40</dim>
				</port>
			</output>
		</layer>
		<layer id="140" name="base_net.4.4.weight_compressed" type="Const" version="opset1">
			<data element_type="f16" shape="64" offset="13928" size="128" />
			<output>
				<port id="0" precision="FP16" names="base_net.4.4.weight">
					<dim>64</dim>
				</port>
			</output>
		</layer>
		<layer id="141" name="base_net.4.4.weight" type="Convert" version="opset1">
			<data destination_type="f32" />
			<rt_info>
				<attribute name="decompression" version="0" />
			</rt_info>
			<input>
				<port id="0" precision="FP16">
					<dim>64</dim>
				</port>
			</input>
			<output>
				<port id="1" precision="FP32">
					<dim>64</dim>
				</port>
			</output>
		</layer>
		<layer id="142" name="base_net.4.4.bias_compressed" type="Const" version="opset1">
			<data element_type="f16" shape="64" offset="14056" size="128" />
			<output>
				<port id="0" precision="FP16" names="base_net.4.4.bias">
					<dim>64</dim>
				</port>
			</output>
		</layer>
		<layer id="143" name="base_net.4.4.bias" type="Convert" version="opset1">
			<data destination_type="f32" />
			<rt_info>
				<attribute name="decompression" version="0" />
			</rt_info>
			<input>
				<port id="0" precision="FP16">
					<dim>64</dim>
				</port>
			</input>
			<output>
				<port id="1" precision="FP32">
					<dim>64</dim>
				</port>
			</output>
		</layer>
		<layer id="144" name="base_net.4.4.running_mean_compressed" type="Const" version="opset1">
			<data element_type="f16" shape="64" offset="14184" size="128" />
			<output>
				<port id="0" precision="FP16" names="base_net.4.4.running_mean">
					<dim>64</dim>
				</port>
			</output>
		</layer>
		<layer id="145" name="base_net.4.4.running_mean" type="Convert" version="opset1">
			<data destination_type="f32" />
			<rt_info>
				<attribute name="decompression" version="0" />
			</rt_info>
			<input>
				<port id="0" precision="FP16">
					<dim>64</dim>
				</port>
			</input>
			<output>
				<port id="1" precision="FP32">
					<dim>64</dim>
				</port>
			</output>
		</layer>
		<layer id="146" name="base_net.4.4.running_var_compressed" type="Const" version="opset1">
			<data element_type="f16" shape="64" offset="14312" size="128" />
			<output>
				<port id="0" precision="FP16" names="base_net.4.4.running_var">
					<dim>64</dim>
				</port>
			</output>
		</layer>
		<layer id="147" name="base_net.4.4.running_var" type="Convert" version="opset1">
			<data destination_type="f32" />
			<rt_info>
				<attribute name="decompression" version="0" />
			</rt_info>
			<input>
				<port id="0" precision="FP16">
					<dim>64</dim>
				</port>
			</input>
			<output>
				<port id="1" precision="FP32">
					<dim>64</dim>
				</port>
			</output>
		</layer>
		<layer id="148" name="270" type="BatchNormInference" version="opset5">
			<data epsilon="9.9999997473787516e-06" />
			<input>
				<port id="0" precision="FP32">
					<dim>1</dim>
					<dim>64</dim>
					<dim>30</dim>
					<dim>40</dim>
				</port>
				<port id="1" precision="FP32">
					<dim>64</dim>
				</port>
				<port id="2" precision="FP32">
					<dim>64</dim>
				</port>
				<port id="3" precision="FP32">
					<dim>64</dim>
				</port>
				<port id="4" precision="FP32">
					<dim>64</dim>
				</port>
			</input>
			<output>
				<port id="5" precision="FP32" names="270">
					<dim>1</dim>
					<dim>64</dim>
					<dim>30</dim>
					<dim>40</dim>
				</port>
			</output>
		</layer>
		<layer id="149" name="271" type="ReLU" version="opset1">
			<input>
				<port id="0" precision="FP32">
					<dim>1</dim>
					<dim>64</dim>
					<dim>30</dim>
					<dim>40</dim>
				</port>
			</input>
			<output>
				<port id="1" precision="FP32" names="271">
					<dim>1</dim>
					<dim>64</dim>
					<dim>30</dim>
					<dim>40</dim>
				</port>
			</output>
		</layer>
		<layer id="150" name="base_net.5.0.weight_compressed" type="Const" version="opset1">
			<data element_type="f16" shape="64, 1, 3, 3" offset="14440" size="1152" />
			<output>
				<port id="0" precision="FP16" names="base_net.5.0.weight">
					<dim>64</dim>
					<dim>1</dim>
					<dim>3</dim>
					<dim>3</dim>
				</port>
			</output>
		</layer>
		<layer id="151" name="base_net.5.0.weight" type="Convert" version="opset1">
			<data destination_type="f32" />
			<rt_info>
				<attribute name="decompression" version="0" />
			</rt_info>
			<input>
				<port id="0" precision="FP16">
					<dim>64</dim>
					<dim>1</dim>
					<dim>3</dim>
					<dim>3</dim>
				</port>
			</input>
			<output>
				<port id="1" precision="FP32">
					<dim>64</dim>
					<dim>1</dim>
					<dim>3</dim>
					<dim>3</dim>
				</port>
			</output>
		</layer>
		<layer id="152" name="Constant_469" type="Const" version="opset1">
			<data element_type="i64" shape="1" offset="15592" size="8" />
			<rt_info>
				<attribute name="precise" version="0" />
			</rt_info>
			<output>
				<port id="0" precision="I64">
					<dim>1</dim>
				</port>
			</output>
		</layer>
		<layer id="153" name="ShapeOf_470" type="ShapeOf" version="opset3">
			<data output_type="i64" />
			<input>
				<port id="0" precision="FP32">
					<dim>64</dim>
					<dim>1</dim>
					<dim>3</dim>
					<dim>3</dim>
				</port>
			</input>
			<output>
				<port id="1" precision="I64">
					<dim>4</dim>
				</port>
			</output>
		</layer>
		<layer id="154" name="Constant_467" type="Const" version="opset1">
			<data element_type="i64" shape="" offset="1288" size="8" />
			<rt_info>
				<attribute name="precise" version="0" />
			</rt_info>
			<output>
				<port id="0" precision="I64" />
			</output>
		</layer>
		<layer id="155" name="Constant_468" type="Const" version="opset1">
			<data element_type="i64" shape="2" offset="1296" size="16" />
			<rt_info>
				<attribute name="precise" version="0" />
			</rt_info>
			<output>
				<port id="0" precision="I64">
					<dim>2</dim>
				</port>
			</output>
		</layer>
		<layer id="156" name="VariadicSplit_471" type="VariadicSplit" version="opset1">
			<input>
				<port id="0" precision="I64">
					<dim>4</dim>
				</port>
				<port id="1" precision="I64" />
				<port id="2" precision="I64">
					<dim>2</dim>
				</port>
			</input>
			<output>
				<port id="3" precision="I64">
					<dim>1</dim>
				</port>
				<port id="4" precision="I64">
					<dim>3</dim>
				</port>
			</output>
		</layer>
		<layer id="157" name="Divide_472" type="Divide" version="opset1">
			<data auto_broadcast="numpy" m_pythondiv="true" />
			<input>
				<port id="0" precision="I64">
					<dim>1</dim>
				</port>
				<port id="1" precision="I64">
					<dim>1</dim>
				</port>
			</input>
			<output>
				<port id="2" precision="I64">
					<dim>1</dim>
				</port>
			</output>
		</layer>
		<layer id="158" name="Concat_473" type="Concat" version="opset1">
			<data axis="0" />
			<input>
				<port id="0" precision="I64">
					<dim>1</dim>
				</port>
				<port id="1" precision="I64">
					<dim>1</dim>
				</port>
				<port id="2" precision="I64">
					<dim>3</dim>
				</port>
			</input>
			<output>
				<port id="3" precision="I64">
					<dim>5</dim>
				</port>
			</output>
		</layer>
		<layer id="159" name="Reshape_474" type="Reshape" version="opset1">
			<data special_zero="false" />
			<input>
				<port id="0" precision="FP32">
					<dim>64</dim>
					<dim>1</dim>
					<dim>3</dim>
					<dim>3</dim>
				</port>
				<port id="1" precision="I64">
					<dim>5</dim>
				</port>
			</input>
			<output>
				<port id="2" precision="FP32">
					<dim>64</dim>
					<dim>1</dim>
					<dim>1</dim>
					<dim>3</dim>
					<dim>3</dim>
				</port>
			</output>
		</layer>
		<layer id="160" name="272" type="GroupConvolution" version="opset1">
			<data strides="1, 1" pads_begin="1, 1" pads_end="1, 1" dilations="1, 1" auto_pad="explicit" />
			<input>
				<port id="0" precision="FP32">
					<dim>1</dim>
					<dim>64</dim>
					<dim>30</dim>
					<dim>40</dim>
				</port>
				<port id="1" precision="FP32">
					<dim>64</dim>
					<dim>1</dim>
					<dim>1</dim>
					<dim>3</dim>
					<dim>3</dim>
				</port>
			</input>
			<output>
				<port id="2" precision="FP32" names="272">
					<dim>1</dim>
					<dim>64</dim>
					<dim>30</dim>
					<dim>40</dim>
				</port>
			</output>
		</layer>
		<layer id="161" name="base_net.5.1.weight_compressed" type="Const" version="opset1">
			<data element_type="f16" shape="64" offset="15600" size="128" />
			<output>
				<port id="0" precision="FP16" names="base_net.5.1.weight">
					<dim>64</dim>
				</port>
			</output>
		</layer>
		<layer id="162" name="base_net.5.1.weight" type="Convert" version="opset1">
			<data destination_type="f32" />
			<rt_info>
				<attribute name="decompression" version="0" />
			</rt_info>
			<input>
				<port id="0" precision="FP16">
					<dim>64</dim>
				</port>
			</input>
			<output>
				<port id="1" precision="FP32">
					<dim>64</dim>
				</port>
			</output>
		</layer>
		<layer id="163" name="base_net.5.1.bias_compressed" type="Const" version="opset1">
			<data element_type="f16" shape="64" offset="15728" size="128" />
			<output>
				<port id="0" precision="FP16" names="base_net.5.1.bias">
					<dim>64</dim>
				</port>
			</output>
		</layer>
		<layer id="164" name="base_net.5.1.bias" type="Convert" version="opset1">
			<data destination_type="f32" />
			<rt_info>
				<attribute name="decompression" version="0" />
			</rt_info>
			<input>
				<port id="0" precision="FP16">
					<dim>64</dim>
				</port>
			</input>
			<output>
				<port id="1" precision="FP32">
					<dim>64</dim>
				</port>
			</output>
		</layer>
		<layer id="165" name="base_net.5.1.running_mean_compressed" type="Const" version="opset1">
			<data element_type="f16" shape="64" offset="15856" size="128" />
			<output>
				<port id="0" precision="FP16" names="base_net.5.1.running_mean">
					<dim>64</dim>
				</port>
			</output>
		</layer>
		<layer id="166" name="base_net.5.1.running_mean" type="Convert" version="opset1">
			<data destination_type="f32" />
			<rt_info>
				<attribute name="decompression" version="0" />
			</rt_info>
			<input>
				<port id="0" precision="FP16">
					<dim>64</dim>
				</port>
			</input>
			<output>
				<port id="1" precision="FP32">
					<dim>64</dim>
				</port>
			</output>
		</layer>
		<layer id="167" name="base_net.5.1.running_var_compressed" type="Const" version="opset1">
			<data element_type="f16" shape="64" offset="15984" size="128" />
			<output>
				<port id="0" precision="FP16" names="base_net.5.1.running_var">
					<dim>64</dim>
				</port>
			</output>
		</layer>
		<layer id="168" name="base_net.5.1.running_var" type="Convert" version="opset1">
			<data destination_type="f32" />
			<rt_info>
				<attribute name="decompression" version="0" />
			</rt_info>
			<input>
				<port id="0" precision="FP16">
					<dim>64</dim>
				</port>
			</input>
			<output>
				<port id="1" precision="FP32">
					<dim>64</dim>
				</port>
			</output>
		</layer>
		<layer id="169" name="273" type="BatchNormInference" version="opset5">
			<data epsilon="9.9999997473787516e-06" />
			<input>
				<port id="0" precision="FP32">
					<dim>1</dim>
					<dim>64</dim>
					<dim>30</dim>
					<dim>40</dim>
				</port>
				<port id="1" precision="FP32">
					<dim>64</dim>
				</port>
				<port id="2" precision="FP32">
					<dim>64</dim>
				</port>
				<port id="3" precision="FP32">
					<dim>64</dim>
				</port>
				<port id="4" precision="FP32">
					<dim>64</dim>
				</port>
			</input>
			<output>
				<port id="5" precision="FP32" names="273">
					<dim>1</dim>
					<dim>64</dim>
					<dim>30</dim>
					<dim>40</dim>
				</port>
			</output>
		</layer>
		<layer id="170" name="274" type="ReLU" version="opset1">
			<input>
				<port id="0" precision="FP32">
					<dim>1</dim>
					<dim>64</dim>
					<dim>30</dim>
					<dim>40</dim>
				</port>
			</input>
			<output>
				<port id="1" precision="FP32" names="274">
					<dim>1</dim>
					<dim>64</dim>
					<dim>30</dim>
					<dim>40</dim>
				</port>
			</output>
		</layer>
		<layer id="171" name="base_net.5.3.weight_compressed" type="Const" version="opset1">
			<data element_type="f16" shape="64, 64, 1, 1" offset="16112" size="8192" />
			<output>
				<port id="0" precision="FP16" names="base_net.5.3.weight">
					<dim>64</dim>
					<dim>64</dim>
					<dim>1</dim>
					<dim>1</dim>
				</port>
			</output>
		</layer>
		<layer id="172" name="base_net.5.3.weight" type="Convert" version="opset1">
			<data destination_type="f32" />
			<rt_info>
				<attribute name="decompression" version="0" />
			</rt_info>
			<input>
				<port id="0" precision="FP16">
					<dim>64</dim>
					<dim>64</dim>
					<dim>1</dim>
					<dim>1</dim>
				</port>
			</input>
			<output>
				<port id="1" precision="FP32">
					<dim>64</dim>
					<dim>64</dim>
					<dim>1</dim>
					<dim>1</dim>
				</port>
			</output>
		</layer>
		<layer id="173" name="275" type="Convolution" version="opset1">
			<data strides="1, 1" dilations="1, 1" pads_begin="0, 0" pads_end="0, 0" auto_pad="explicit" />
			<input>
				<port id="0" precision="FP32">
					<dim>1</dim>
					<dim>64</dim>
					<dim>30</dim>
					<dim>40</dim>
				</port>
				<port id="1" precision="FP32">
					<dim>64</dim>
					<dim>64</dim>
					<dim>1</dim>
					<dim>1</dim>
				</port>
			</input>
			<output>
				<port id="2" precision="FP32" names="275">
					<dim>1</dim>
					<dim>64</dim>
					<dim>30</dim>
					<dim>40</dim>
				</port>
			</output>
		</layer>
		<layer id="174" name="base_net.5.4.weight_compressed" type="Const" version="opset1">
			<data element_type="f16" shape="64" offset="24304" size="128" />
			<output>
				<port id="0" precision="FP16" names="base_net.5.4.weight">
					<dim>64</dim>
				</port>
			</output>
		</layer>
		<layer id="175" name="base_net.5.4.weight" type="Convert" version="opset1">
			<data destination_type="f32" />
			<rt_info>
				<attribute name="decompression" version="0" />
			</rt_info>
			<input>
				<port id="0" precision="FP16">
					<dim>64</dim>
				</port>
			</input>
			<output>
				<port id="1" precision="FP32">
					<dim>64</dim>
				</port>
			</output>
		</layer>
		<layer id="176" name="base_net.5.4.bias_compressed" type="Const" version="opset1">
			<data element_type="f16" shape="64" offset="24432" size="128" />
			<output>
				<port id="0" precision="FP16" names="base_net.5.4.bias">
					<dim>64</dim>
				</port>
			</output>
		</layer>
		<layer id="177" name="base_net.5.4.bias" type="Convert" version="opset1">
			<data destination_type="f32" />
			<rt_info>
				<attribute name="decompression" version="0" />
			</rt_info>
			<input>
				<port id="0" precision="FP16">
					<dim>64</dim>
				</port>
			</input>
			<output>
				<port id="1" precision="FP32">
					<dim>64</dim>
				</port>
			</output>
		</layer>
		<layer id="178" name="base_net.5.4.running_mean_compressed" type="Const" version="opset1">
			<data element_type="f16" shape="64" offset="24560" size="128" />
			<output>
				<port id="0" precision="FP16" names="base_net.5.4.running_mean">
					<dim>64</dim>
				</port>
			</output>
		</layer>
		<layer id="179" name="base_net.5.4.running_mean" type="Convert" version="opset1">
			<data destination_type="f32" />
			<rt_info>
				<attribute name="decompression" version="0" />
			</rt_info>
			<input>
				<port id="0" precision="FP16">
					<dim>64</dim>
				</port>
			</input>
			<output>
				<port id="1" precision="FP32">
					<dim>64</dim>
				</port>
			</output>
		</layer>
		<layer id="180" name="base_net.5.4.running_var_compressed" type="Const" version="opset1">
			<data element_type="f16" shape="64" offset="24688" size="128" />
			<output>
				<port id="0" precision="FP16" names="base_net.5.4.running_var">
					<dim>64</dim>
				</port>
			</output>
		</layer>
		<layer id="181" name="base_net.5.4.running_var" type="Convert" version="opset1">
			<data destination_type="f32" />
			<rt_info>
				<attribute name="decompression" version="0" />
			</rt_info>
			<input>
				<port id="0" precision="FP16">
					<dim>64</dim>
				</port>
			</input>
			<output>
				<port id="1" precision="FP32">
					<dim>64</dim>
				</port>
			</output>
		</layer>
		<layer id="182" name="276" type="BatchNormInference" version="opset5">
			<data epsilon="9.9999997473787516e-06" />
			<input>
				<port id="0" precision="FP32">
					<dim>1</dim>
					<dim>64</dim>
					<dim>30</dim>
					<dim>40</dim>
				</port>
				<port id="1" precision="FP32">
					<dim>64</dim>
				</port>
				<port id="2" precision="FP32">
					<dim>64</dim>
				</port>
				<port id="3" precision="FP32">
					<dim>64</dim>
				</port>
				<port id="4" precision="FP32">
					<dim>64</dim>
				</port>
			</input>
			<output>
				<port id="5" precision="FP32" names="276">
					<dim>1</dim>
					<dim>64</dim>
					<dim>30</dim>
					<dim>40</dim>
				</port>
			</output>
		</layer>
		<layer id="183" name="277" type="ReLU" version="opset1">
			<input>
				<port id="0" precision="FP32">
					<dim>1</dim>
					<dim>64</dim>
					<dim>30</dim>
					<dim>40</dim>
				</port>
			</input>
			<output>
				<port id="1" precision="FP32" names="277">
					<dim>1</dim>
					<dim>64</dim>
					<dim>30</dim>
					<dim>40</dim>
				</port>
			</output>
		</layer>
		<layer id="184" name="base_net.6.0.weight_compressed" type="Const" version="opset1">
			<data element_type="f16" shape="64, 1, 3, 3" offset="24816" size="1152" />
			<output>
				<port id="0" precision="FP16" names="base_net.6.0.weight">
					<dim>64</dim>
					<dim>1</dim>
					<dim>3</dim>
					<dim>3</dim>
				</port>
			</output>
		</layer>
		<layer id="185" name="base_net.6.0.weight" type="Convert" version="opset1">
			<data destination_type="f32" />
			<rt_info>
				<attribute name="decompression" version="0" />
			</rt_info>
			<input>
				<port id="0" precision="FP16">
					<dim>64</dim>
					<dim>1</dim>
					<dim>3</dim>
					<dim>3</dim>
				</port>
			</input>
			<output>
				<port id="1" precision="FP32">
					<dim>64</dim>
					<dim>1</dim>
					<dim>3</dim>
					<dim>3</dim>
				</port>
			</output>
		</layer>
		<layer id="186" name="Constant_523" type="Const" version="opset1">
			<data element_type="i64" shape="1" offset="15592" size="8" />
			<rt_info>
				<attribute name="precise" version="0" />
			</rt_info>
			<output>
				<port id="0" precision="I64">
					<dim>1</dim>
				</port>
			</output>
		</layer>
		<layer id="187" name="ShapeOf_524" type="ShapeOf" version="opset3">
			<data output_type="i64" />
			<input>
				<port id="0" precision="FP32">
					<dim>64</dim>
					<dim>1</dim>
					<dim>3</dim>
					<dim>3</dim>
				</port>
			</input>
			<output>
				<port id="1" precision="I64">
					<dim>4</dim>
				</port>
			</output>
		</layer>
		<layer id="188" name="Constant_521" type="Const" version="opset1">
			<data element_type="i64" shape="" offset="1288" size="8" />
			<rt_info>
				<attribute name="precise" version="0" />
			</rt_info>
			<output>
				<port id="0" precision="I64" />
			</output>
		</layer>
		<layer id="189" name="Constant_522" type="Const" version="opset1">
			<data element_type="i64" shape="2" offset="1296" size="16" />
			<rt_info>
				<attribute name="precise" version="0" />
			</rt_info>
			<output>
				<port id="0" precision="I64">
					<dim>2</dim>
				</port>
			</output>
		</layer>
		<layer id="190" name="VariadicSplit_525" type="VariadicSplit" version="opset1">
			<input>
				<port id="0" precision="I64">
					<dim>4</dim>
				</port>
				<port id="1" precision="I64" />
				<port id="2" precision="I64">
					<dim>2</dim>
				</port>
			</input>
			<output>
				<port id="3" precision="I64">
					<dim>1</dim>
				</port>
				<port id="4" precision="I64">
					<dim>3</dim>
				</port>
			</output>
		</layer>
		<layer id="191" name="Divide_526" type="Divide" version="opset1">
			<data auto_broadcast="numpy" m_pythondiv="true" />
			<input>
				<port id="0" precision="I64">
					<dim>1</dim>
				</port>
				<port id="1" precision="I64">
					<dim>1</dim>
				</port>
			</input>
			<output>
				<port id="2" precision="I64">
					<dim>1</dim>
				</port>
			</output>
		</layer>
		<layer id="192" name="Concat_527" type="Concat" version="opset1">
			<data axis="0" />
			<input>
				<port id="0" precision="I64">
					<dim>1</dim>
				</port>
				<port id="1" precision="I64">
					<dim>1</dim>
				</port>
				<port id="2" precision="I64">
					<dim>3</dim>
				</port>
			</input>
			<output>
				<port id="3" precision="I64">
					<dim>5</dim>
				</port>
			</output>
		</layer>
		<layer id="193" name="Reshape_528" type="Reshape" version="opset1">
			<data special_zero="false" />
			<input>
				<port id="0" precision="FP32">
					<dim>64</dim>
					<dim>1</dim>
					<dim>3</dim>
					<dim>3</dim>
				</port>
				<port id="1" precision="I64">
					<dim>5</dim>
				</port>
			</input>
			<output>
				<port id="2" precision="FP32">
					<dim>64</dim>
					<dim>1</dim>
					<dim>1</dim>
					<dim>3</dim>
					<dim>3</dim>
				</port>
			</output>
		</layer>
		<layer id="194" name="278" type="GroupConvolution" version="opset1">
			<data strides="1, 1" pads_begin="1, 1" pads_end="1, 1" dilations="1, 1" auto_pad="explicit" />
			<input>
				<port id="0" precision="FP32">
					<dim>1</dim>
					<dim>64</dim>
					<dim>30</dim>
					<dim>40</dim>
				</port>
				<port id="1" precision="FP32">
					<dim>64</dim>
					<dim>1</dim>
					<dim>1</dim>
					<dim>3</dim>
					<dim>3</dim>
				</port>
			</input>
			<output>
				<port id="2" precision="FP32" names="278">
					<dim>1</dim>
					<dim>64</dim>
					<dim>30</dim>
					<dim>40</dim>
				</port>
			</output>
		</layer>
		<layer id="195" name="base_net.6.1.weight_compressed" type="Const" version="opset1">
			<data element_type="f16" shape="64" offset="25968" size="128" />
			<output>
				<port id="0" precision="FP16" names="base_net.6.1.weight">
					<dim>64</dim>
				</port>
			</output>
		</layer>
		<layer id="196" name="base_net.6.1.weight" type="Convert" version="opset1">
			<data destination_type="f32" />
			<rt_info>
				<attribute name="decompression" version="0" />
			</rt_info>
			<input>
				<port id="0" precision="FP16">
					<dim>64</dim>
				</port>
			</input>
			<output>
				<port id="1" precision="FP32">
					<dim>64</dim>
				</port>
			</output>
		</layer>
		<layer id="197" name="base_net.6.1.bias_compressed" type="Const" version="opset1">
			<data element_type="f16" shape="64" offset="26096" size="128" />
			<output>
				<port id="0" precision="FP16" names="base_net.6.1.bias">
					<dim>64</dim>
				</port>
			</output>
		</layer>
		<layer id="198" name="base_net.6.1.bias" type="Convert" version="opset1">
			<data destination_type="f32" />
			<rt_info>
				<attribute name="decompression" version="0" />
			</rt_info>
			<input>
				<port id="0" precision="FP16">
					<dim>64</dim>
				</port>
			</input>
			<output>
				<port id="1" precision="FP32">
					<dim>64</dim>
				</port>
			</output>
		</layer>
		<layer id="199" name="base_net.6.1.running_mean_compressed" type="Const" version="opset1">
			<data element_type="f16" shape="64" offset="26224" size="128" />
			<output>
				<port id="0" precision="FP16" names="base_net.6.1.running_mean">
					<dim>64</dim>
				</port>
			</output>
		</layer>
		<layer id="200" name="base_net.6.1.running_mean" type="Convert" version="opset1">
			<data destination_type="f32" />
			<rt_info>
				<attribute name="decompression" version="0" />
			</rt_info>
			<input>
				<port id="0" precision="FP16">
					<dim>64</dim>
				</port>
			</input>
			<output>
				<port id="1" precision="FP32">
					<dim>64</dim>
				</port>
			</output>
		</layer>
		<layer id="201" name="base_net.6.1.running_var_compressed" type="Const" version="opset1">
			<data element_type="f16" shape="64" offset="26352" size="128" />
			<output>
				<port id="0" precision="FP16" names="base_net.6.1.running_var">
					<dim>64</dim>
				</port>
			</output>
		</layer>
		<layer id="202" name="base_net.6.1.running_var" type="Convert" version="opset1">
			<data destination_type="f32" />
			<rt_info>
				<attribute name="decompression" version="0" />
			</rt_info>
			<input>
				<port id="0" precision="FP16">
					<dim>64</dim>
				</port>
			</input>
			<output>
				<port id="1" precision="FP32">
					<dim>64</dim>
				</port>
			</output>
		</layer>
		<layer id="203" name="279" type="BatchNormInference" version="opset5">
			<data epsilon="9.9999997473787516e-06" />
			<input>
				<port id="0" precision="FP32">
					<dim>1</dim>
					<dim>64</dim>
					<dim>30</dim>
					<dim>40</dim>
				</port>
				<port id="1" precision="FP32">
					<dim>64</dim>
				</port>
				<port id="2" precision="FP32">
					<dim>64</dim>
				</port>
				<port id="3" precision="FP32">
					<dim>64</dim>
				</port>
				<port id="4" precision="FP32">
					<dim>64</dim>
				</port>
			</input>
			<output>
				<port id="5" precision="FP32" names="279">
					<dim>1</dim>
					<dim>64</dim>
					<dim>30</dim>
					<dim>40</dim>
				</port>
			</output>
		</layer>
		<layer id="204" name="280" type="ReLU" version="opset1">
			<input>
				<port id="0" precision="FP32">
					<dim>1</dim>
					<dim>64</dim>
					<dim>30</dim>
					<dim>40</dim>
				</port>
			</input>
			<output>
				<port id="1" precision="FP32" names="280">
					<dim>1</dim>
					<dim>64</dim>
					<dim>30</dim>
					<dim>40</dim>
				</port>
			</output>
		</layer>
		<layer id="205" name="base_net.6.3.weight_compressed" type="Const" version="opset1">
			<data element_type="f16" shape="64, 64, 1, 1" offset="26480" size="8192" />
			<output>
				<port id="0" precision="FP16" names="base_net.6.3.weight">
					<dim>64</dim>
					<dim>64</dim>
					<dim>1</dim>
					<dim>1</dim>
				</port>
			</output>
		</layer>
		<layer id="206" name="base_net.6.3.weight" type="Convert" version="opset1">
			<data destination_type="f32" />
			<rt_info>
				<attribute name="decompression" version="0" />
			</rt_info>
			<input>
				<port id="0" precision="FP16">
					<dim>64</dim>
					<dim>64</dim>
					<dim>1</dim>
					<dim>1</dim>
				</port>
			</input>
			<output>
				<port id="1" precision="FP32">
					<dim>64</dim>
					<dim>64</dim>
					<dim>1</dim>
					<dim>1</dim>
				</port>
			</output>
		</layer>
		<layer id="207" name="281" type="Convolution" version="opset1">
			<data strides="1, 1" dilations="1, 1" pads_begin="0, 0" pads_end="0, 0" auto_pad="explicit" />
			<input>
				<port id="0" precision="FP32">
					<dim>1</dim>
					<dim>64</dim>
					<dim>30</dim>
					<dim>40</dim>
				</port>
				<port id="1" precision="FP32">
					<dim>64</dim>
					<dim>64</dim>
					<dim>1</dim>
					<dim>1</dim>
				</port>
			</input>
			<output>
				<port id="2" precision="FP32" names="281">
					<dim>1</dim>
					<dim>64</dim>
					<dim>30</dim>
					<dim>40</dim>
				</port>
			</output>
		</layer>
		<layer id="208" name="base_net.6.4.weight_compressed" type="Const" version="opset1">
			<data element_type="f16" shape="64" offset="34672" size="128" />
			<output>
				<port id="0" precision="FP16" names="base_net.6.4.weight">
					<dim>64</dim>
				</port>
			</output>
		</layer>
		<layer id="209" name="base_net.6.4.weight" type="Convert" version="opset1">
			<data destination_type="f32" />
			<rt_info>
				<attribute name="decompression" version="0" />
			</rt_info>
			<input>
				<port id="0" precision="FP16">
					<dim>64</dim>
				</port>
			</input>
			<output>
				<port id="1" precision="FP32">
					<dim>64</dim>
				</port>
			</output>
		</layer>
		<layer id="210" name="base_net.6.4.bias_compressed" type="Const" version="opset1">
			<data element_type="f16" shape="64" offset="34800" size="128" />
			<output>
				<port id="0" precision="FP16" names="base_net.6.4.bias">
					<dim>64</dim>
				</port>
			</output>
		</layer>
		<layer id="211" name="base_net.6.4.bias" type="Convert" version="opset1">
			<data destination_type="f32" />
			<rt_info>
				<attribute name="decompression" version="0" />
			</rt_info>
			<input>
				<port id="0" precision="FP16">
					<dim>64</dim>
				</port>
			</input>
			<output>
				<port id="1" precision="FP32">
					<dim>64</dim>
				</port>
			</output>
		</layer>
		<layer id="212" name="base_net.6.4.running_mean_compressed" type="Const" version="opset1">
			<data element_type="f16" shape="64" offset="34928" size="128" />
			<output>
				<port id="0" precision="FP16" names="base_net.6.4.running_mean">
					<dim>64</dim>
				</port>
			</output>
		</layer>
		<layer id="213" name="base_net.6.4.running_mean" type="Convert" version="opset1">
			<data destination_type="f32" />
			<rt_info>
				<attribute name="decompression" version="0" />
			</rt_info>
			<input>
				<port id="0" precision="FP16">
					<dim>64</dim>
				</port>
			</input>
			<output>
				<port id="1" precision="FP32">
					<dim>64</dim>
				</port>
			</output>
		</layer>
		<layer id="214" name="base_net.6.4.running_var_compressed" type="Const" version="opset1">
			<data element_type="f16" shape="64" offset="35056" size="128" />
			<output>
				<port id="0" precision="FP16" names="base_net.6.4.running_var">
					<dim>64</dim>
				</port>
			</output>
		</layer>
		<layer id="215" name="base_net.6.4.running_var" type="Convert" version="opset1">
			<data destination_type="f32" />
			<rt_info>
				<attribute name="decompression" version="0" />
			</rt_info>
			<input>
				<port id="0" precision="FP16">
					<dim>64</dim>
				</port>
			</input>
			<output>
				<port id="1" precision="FP32">
					<dim>64</dim>
				</port>
			</output>
		</layer>
		<layer id="216" name="282" type="BatchNormInference" version="opset5">
			<data epsilon="9.9999997473787516e-06" />
			<input>
				<port id="0" precision="FP32">
					<dim>1</dim>
					<dim>64</dim>
					<dim>30</dim>
					<dim>40</dim>
				</port>
				<port id="1" precision="FP32">
					<dim>64</dim>
				</port>
				<port id="2" precision="FP32">
					<dim>64</dim>
				</port>
				<port id="3" precision="FP32">
					<dim>64</dim>
				</port>
				<port id="4" precision="FP32">
					<dim>64</dim>
				</port>
			</input>
			<output>
				<port id="5" precision="FP32" names="282">
					<dim>1</dim>
					<dim>64</dim>
					<dim>30</dim>
					<dim>40</dim>
				</port>
			</output>
		</layer>
		<layer id="217" name="283" type="ReLU" version="opset1">
			<input>
				<port id="0" precision="FP32">
					<dim>1</dim>
					<dim>64</dim>
					<dim>30</dim>
					<dim>40</dim>
				</port>
			</input>
			<output>
				<port id="1" precision="FP32" names="283">
					<dim>1</dim>
					<dim>64</dim>
					<dim>30</dim>
					<dim>40</dim>
				</port>
			</output>
		</layer>
		<layer id="218" name="base_net.7.branch0.0.conv.weight_compressed" type="Const" version="opset1">
			<data element_type="f16" shape="8, 64, 1, 1" offset="35184" size="1024" />
			<output>
				<port id="0" precision="FP16" names="base_net.7.branch0.0.conv.weight">
					<dim>8</dim>
					<dim>64</dim>
					<dim>1</dim>
					<dim>1</dim>
				</port>
			</output>
		</layer>
		<layer id="219" name="base_net.7.branch0.0.conv.weight" type="Convert" version="opset1">
			<data destination_type="f32" />
			<rt_info>
				<attribute name="decompression" version="0" />
			</rt_info>
			<input>
				<port id="0" precision="FP16">
					<dim>8</dim>
					<dim>64</dim>
					<dim>1</dim>
					<dim>1</dim>
				</port>
			</input>
			<output>
				<port id="1" precision="FP32">
					<dim>8</dim>
					<dim>64</dim>
					<dim>1</dim>
					<dim>1</dim>
				</port>
			</output>
		</layer>
		<layer id="220" name="284" type="Convolution" version="opset1">
			<data strides="1, 1" dilations="1, 1" pads_begin="0, 0" pads_end="0, 0" auto_pad="explicit" />
			<input>
				<port id="0" precision="FP32">
					<dim>1</dim>
					<dim>64</dim>
					<dim>30</dim>
					<dim>40</dim>
				</port>
				<port id="1" precision="FP32">
					<dim>8</dim>
					<dim>64</dim>
					<dim>1</dim>
					<dim>1</dim>
				</port>
			</input>
			<output>
				<port id="2" precision="FP32" names="284">
					<dim>1</dim>
					<dim>8</dim>
					<dim>30</dim>
					<dim>40</dim>
				</port>
			</output>
		</layer>
		<layer id="221" name="base_net.7.branch0.0.bn.weight_compressed" type="Const" version="opset1">
			<data element_type="f16" shape="8" offset="36208" size="16" />
			<output>
				<port id="0" precision="FP16" names="base_net.7.branch0.0.bn.weight">
					<dim>8</dim>
				</port>
			</output>
		</layer>
		<layer id="222" name="base_net.7.branch0.0.bn.weight" type="Convert" version="opset1">
			<data destination_type="f32" />
			<rt_info>
				<attribute name="decompression" version="0" />
			</rt_info>
			<input>
				<port id="0" precision="FP16">
					<dim>8</dim>
				</port>
			</input>
			<output>
				<port id="1" precision="FP32">
					<dim>8</dim>
				</port>
			</output>
		</layer>
		<layer id="223" name="base_net.7.branch0.0.bn.bias_compressed" type="Const" version="opset1">
			<data element_type="f16" shape="8" offset="36224" size="16" />
			<output>
				<port id="0" precision="FP16" names="base_net.7.branch0.0.bn.bias">
					<dim>8</dim>
				</port>
			</output>
		</layer>
		<layer id="224" name="base_net.7.branch0.0.bn.bias" type="Convert" version="opset1">
			<data destination_type="f32" />
			<rt_info>
				<attribute name="decompression" version="0" />
			</rt_info>
			<input>
				<port id="0" precision="FP16">
					<dim>8</dim>
				</port>
			</input>
			<output>
				<port id="1" precision="FP32">
					<dim>8</dim>
				</port>
			</output>
		</layer>
		<layer id="225" name="base_net.7.branch0.0.bn.running_mean_compressed" type="Const" version="opset1">
			<data element_type="f16" shape="8" offset="36240" size="16" />
			<output>
				<port id="0" precision="FP16" names="base_net.7.branch0.0.bn.running_mean">
					<dim>8</dim>
				</port>
			</output>
		</layer>
		<layer id="226" name="base_net.7.branch0.0.bn.running_mean" type="Convert" version="opset1">
			<data destination_type="f32" />
			<rt_info>
				<attribute name="decompression" version="0" />
			</rt_info>
			<input>
				<port id="0" precision="FP16">
					<dim>8</dim>
				</port>
			</input>
			<output>
				<port id="1" precision="FP32">
					<dim>8</dim>
				</port>
			</output>
		</layer>
		<layer id="227" name="base_net.7.branch0.0.bn.running_var_compressed" type="Const" version="opset1">
			<data element_type="f16" shape="8" offset="36256" size="16" />
			<output>
				<port id="0" precision="FP16" names="base_net.7.branch0.0.bn.running_var">
					<dim>8</dim>
				</port>
			</output>
		</layer>
		<layer id="228" name="base_net.7.branch0.0.bn.running_var" type="Convert" version="opset1">
			<data destination_type="f32" />
			<rt_info>
				<attribute name="decompression" version="0" />
			</rt_info>
			<input>
				<port id="0" precision="FP16">
					<dim>8</dim>
				</port>
			</input>
			<output>
				<port id="1" precision="FP32">
					<dim>8</dim>
				</port>
			</output>
		</layer>
		<layer id="229" name="285" type="BatchNormInference" version="opset5">
			<data epsilon="9.9999997473787516e-06" />
			<input>
				<port id="0" precision="FP32">
					<dim>1</dim>
					<dim>8</dim>
					<dim>30</dim>
					<dim>40</dim>
				</port>
				<port id="1" precision="FP32">
					<dim>8</dim>
				</port>
				<port id="2" precision="FP32">
					<dim>8</dim>
				</port>
				<port id="3" precision="FP32">
					<dim>8</dim>
				</port>
				<port id="4" precision="FP32">
					<dim>8</dim>
				</port>
			</input>
			<output>
				<port id="5" precision="FP32" names="285">
					<dim>1</dim>
					<dim>8</dim>
					<dim>30</dim>
					<dim>40</dim>
				</port>
			</output>
		</layer>
		<layer id="230" name="base_net.7.branch0.1.conv.weight_compressed" type="Const" version="opset1">
			<data element_type="f16" shape="16, 8, 3, 3" offset="36272" size="2304" />
			<output>
				<port id="0" precision="FP16" names="base_net.7.branch0.1.conv.weight">
					<dim>16</dim>
					<dim>8</dim>
					<dim>3</dim>
					<dim>3</dim>
				</port>
			</output>
		</layer>
		<layer id="231" name="base_net.7.branch0.1.conv.weight" type="Convert" version="opset1">
			<data destination_type="f32" />
			<rt_info>
				<attribute name="decompression" version="0" />
			</rt_info>
			<input>
				<port id="0" precision="FP16">
					<dim>16</dim>
					<dim>8</dim>
					<dim>3</dim>
					<dim>3</dim>
				</port>
			</input>
			<output>
				<port id="1" precision="FP32">
					<dim>16</dim>
					<dim>8</dim>
					<dim>3</dim>
					<dim>3</dim>
				</port>
			</output>
		</layer>
		<layer id="232" name="286" type="Convolution" version="opset1">
			<data strides="1, 1" dilations="1, 1" pads_begin="1, 1" pads_end="1, 1" auto_pad="explicit" />
			<input>
				<port id="0" precision="FP32">
					<dim>1</dim>
					<dim>8</dim>
					<dim>30</dim>
					<dim>40</dim>
				</port>
				<port id="1" precision="FP32">
					<dim>16</dim>
					<dim>8</dim>
					<dim>3</dim>
					<dim>3</dim>
				</port>
			</input>
			<output>
				<port id="2" precision="FP32" names="286">
					<dim>1</dim>
					<dim>16</dim>
					<dim>30</dim>
					<dim>40</dim>
				</port>
			</output>
		</layer>
		<layer id="233" name="base_net.7.branch0.1.bn.weight_compressed" type="Const" version="opset1">
			<data element_type="f16" shape="16" offset="38576" size="32" />
			<output>
				<port id="0" precision="FP16" names="base_net.7.branch0.1.bn.weight">
					<dim>16</dim>
				</port>
			</output>
		</layer>
		<layer id="234" name="base_net.7.branch0.1.bn.weight" type="Convert" version="opset1">
			<data destination_type="f32" />
			<rt_info>
				<attribute name="decompression" version="0" />
			</rt_info>
			<input>
				<port id="0" precision="FP16">
					<dim>16</dim>
				</port>
			</input>
			<output>
				<port id="1" precision="FP32">
					<dim>16</dim>
				</port>
			</output>
		</layer>
		<layer id="235" name="base_net.7.branch0.1.bn.bias_compressed" type="Const" version="opset1">
			<data element_type="f16" shape="16" offset="38608" size="32" />
			<output>
				<port id="0" precision="FP16" names="base_net.7.branch0.1.bn.bias">
					<dim>16</dim>
				</port>
			</output>
		</layer>
		<layer id="236" name="base_net.7.branch0.1.bn.bias" type="Convert" version="opset1">
			<data destination_type="f32" />
			<rt_info>
				<attribute name="decompression" version="0" />
			</rt_info>
			<input>
				<port id="0" precision="FP16">
					<dim>16</dim>
				</port>
			</input>
			<output>
				<port id="1" precision="FP32">
					<dim>16</dim>
				</port>
			</output>
		</layer>
		<layer id="237" name="base_net.7.branch0.1.bn.running_mean_compressed" type="Const" version="opset1">
			<data element_type="f16" shape="16" offset="38640" size="32" />
			<output>
				<port id="0" precision="FP16" names="base_net.7.branch0.1.bn.running_mean">
					<dim>16</dim>
				</port>
			</output>
		</layer>
		<layer id="238" name="base_net.7.branch0.1.bn.running_mean" type="Convert" version="opset1">
			<data destination_type="f32" />
			<rt_info>
				<attribute name="decompression" version="0" />
			</rt_info>
			<input>
				<port id="0" precision="FP16">
					<dim>16</dim>
				</port>
			</input>
			<output>
				<port id="1" precision="FP32">
					<dim>16</dim>
				</port>
			</output>
		</layer>
		<layer id="239" name="base_net.7.branch0.1.bn.running_var_compressed" type="Const" version="opset1">
			<data element_type="f16" shape="16" offset="38672" size="32" />
			<output>
				<port id="0" precision="FP16" names="base_net.7.branch0.1.bn.running_var">
					<dim>16</dim>
				</port>
			</output>
		</layer>
		<layer id="240" name="base_net.7.branch0.1.bn.running_var" type="Convert" version="opset1">
			<data destination_type="f32" />
			<rt_info>
				<attribute name="decompression" version="0" />
			</rt_info>
			<input>
				<port id="0" precision="FP16">
					<dim>16</dim>
				</port>
			</input>
			<output>
				<port id="1" precision="FP32">
					<dim>16</dim>
				</port>
			</output>
		</layer>
		<layer id="241" name="287" type="BatchNormInference" version="opset5">
			<data epsilon="9.9999997473787516e-06" />
			<input>
				<port id="0" precision="FP32">
					<dim>1</dim>
					<dim>16</dim>
					<dim>30</dim>
					<dim>40</dim>
				</port>
				<port id="1" precision="FP32">
					<dim>16</dim>
				</port>
				<port id="2" precision="FP32">
					<dim>16</dim>
				</port>
				<port id="3" precision="FP32">
					<dim>16</dim>
				</port>
				<port id="4" precision="FP32">
					<dim>16</dim>
				</port>
			</input>
			<output>
				<port id="5" precision="FP32" names="287">
					<dim>1</dim>
					<dim>16</dim>
					<dim>30</dim>
					<dim>40</dim>
				</port>
			</output>
		</layer>
		<layer id="242" name="288" type="ReLU" version="opset1">
			<input>
				<port id="0" precision="FP32">
					<dim>1</dim>
					<dim>16</dim>
					<dim>30</dim>
					<dim>40</dim>
				</port>
			</input>
			<output>
				<port id="1" precision="FP32" names="288">
					<dim>1</dim>
					<dim>16</dim>
					<dim>30</dim>
					<dim>40</dim>
				</port>
			</output>
		</layer>
		<layer id="243" name="base_net.7.branch0.2.conv.weight_compressed" type="Const" version="opset1">
			<data element_type="f16" shape="16, 16, 3, 3" offset="38704" size="4608" />
			<output>
				<port id="0" precision="FP16" names="base_net.7.branch0.2.conv.weight">
					<dim>16</dim>
					<dim>16</dim>
					<dim>3</dim>
					<dim>3</dim>
				</port>
			</output>
		</layer>
		<layer id="244" name="base_net.7.branch0.2.conv.weight" type="Convert" version="opset1">
			<data destination_type="f32" />
			<rt_info>
				<attribute name="decompression" version="0" />
			</rt_info>
			<input>
				<port id="0" precision="FP16">
					<dim>16</dim>
					<dim>16</dim>
					<dim>3</dim>
					<dim>3</dim>
				</port>
			</input>
			<output>
				<port id="1" precision="FP32">
					<dim>16</dim>
					<dim>16</dim>
					<dim>3</dim>
					<dim>3</dim>
				</port>
			</output>
		</layer>
		<layer id="245" name="289" type="Convolution" version="opset1">
			<data strides="1, 1" dilations="2, 2" pads_begin="2, 2" pads_end="2, 2" auto_pad="explicit" />
			<input>
				<port id="0" precision="FP32">
					<dim>1</dim>
					<dim>16</dim>
					<dim>30</dim>
					<dim>40</dim>
				</port>
				<port id="1" precision="FP32">
					<dim>16</dim>
					<dim>16</dim>
					<dim>3</dim>
					<dim>3</dim>
				</port>
			</input>
			<output>
				<port id="2" precision="FP32" names="289">
					<dim>1</dim>
					<dim>16</dim>
					<dim>30</dim>
					<dim>40</dim>
				</port>
			</output>
		</layer>
		<layer id="246" name="base_net.7.branch0.2.bn.weight_compressed" type="Const" version="opset1">
			<data element_type="f16" shape="16" offset="43312" size="32" />
			<output>
				<port id="0" precision="FP16" names="base_net.7.branch0.2.bn.weight">
					<dim>16</dim>
				</port>
			</output>
		</layer>
		<layer id="247" name="base_net.7.branch0.2.bn.weight" type="Convert" version="opset1">
			<data destination_type="f32" />
			<rt_info>
				<attribute name="decompression" version="0" />
			</rt_info>
			<input>
				<port id="0" precision="FP16">
					<dim>16</dim>
				</port>
			</input>
			<output>
				<port id="1" precision="FP32">
					<dim>16</dim>
				</port>
			</output>
		</layer>
		<layer id="248" name="base_net.7.branch0.2.bn.bias" type="Const" version="opset1">
			<data element_type="f32" shape="16" offset="43344" size="64" />
			<output>
				<port id="0" precision="FP32" names="base_net.7.branch0.2.bn.bias">
					<dim>16</dim>
				</port>
			</output>
		</layer>
		<layer id="249" name="base_net.7.branch0.2.bn.running_mean_compressed" type="Const" version="opset1">
			<data element_type="f16" shape="16" offset="43408" size="32" />
			<output>
				<port id="0" precision="FP16" names="base_net.7.branch0.2.bn.running_mean">
					<dim>16</dim>
				</port>
			</output>
		</layer>
		<layer id="250" name="base_net.7.branch0.2.bn.running_mean" type="Convert" version="opset1">
			<data destination_type="f32" />
			<rt_info>
				<attribute name="decompression" version="0" />
			</rt_info>
			<input>
				<port id="0" precision="FP16">
					<dim>16</dim>
				</port>
			</input>
			<output>
				<port id="1" precision="FP32">
					<dim>16</dim>
				</port>
			</output>
		</layer>
		<layer id="251" name="base_net.7.branch0.2.bn.running_var_compressed" type="Const" version="opset1">
			<data element_type="f16" shape="16" offset="43440" size="32" />
			<output>
				<port id="0" precision="FP16" names="base_net.7.branch0.2.bn.running_var">
					<dim>16</dim>
				</port>
			</output>
		</layer>
		<layer id="252" name="base_net.7.branch0.2.bn.running_var" type="Convert" version="opset1">
			<data destination_type="f32" />
			<rt_info>
				<attribute name="decompression" version="0" />
			</rt_info>
			<input>
				<port id="0" precision="FP16">
					<dim>16</dim>
				</port>
			</input>
			<output>
				<port id="1" precision="FP32">
					<dim>16</dim>
				</port>
			</output>
		</layer>
		<layer id="253" name="290" type="BatchNormInference" version="opset5">
			<data epsilon="9.9999997473787516e-06" />
			<input>
				<port id="0" precision="FP32">
					<dim>1</dim>
					<dim>16</dim>
					<dim>30</dim>
					<dim>40</dim>
				</port>
				<port id="1" precision="FP32">
					<dim>16</dim>
				</port>
				<port id="2" precision="FP32">
					<dim>16</dim>
				</port>
				<port id="3" precision="FP32">
					<dim>16</dim>
				</port>
				<port id="4" precision="FP32">
					<dim>16</dim>
				</port>
			</input>
			<output>
				<port id="5" precision="FP32" names="290">
					<dim>1</dim>
					<dim>16</dim>
					<dim>30</dim>
					<dim>40</dim>
				</port>
			</output>
		</layer>
		<layer id="254" name="base_net.7.branch1.0.conv.weight_compressed" type="Const" version="opset1">
			<data element_type="f16" shape="8, 64, 1, 1" offset="43472" size="1024" />
			<output>
				<port id="0" precision="FP16" names="base_net.7.branch1.0.conv.weight">
					<dim>8</dim>
					<dim>64</dim>
					<dim>1</dim>
					<dim>1</dim>
				</port>
			</output>
		</layer>
		<layer id="255" name="base_net.7.branch1.0.conv.weight" type="Convert" version="opset1">
			<data destination_type="f32" />
			<rt_info>
				<attribute name="decompression" version="0" />
			</rt_info>
			<input>
				<port id="0" precision="FP16">
					<dim>8</dim>
					<dim>64</dim>
					<dim>1</dim>
					<dim>1</dim>
				</port>
			</input>
			<output>
				<port id="1" precision="FP32">
					<dim>8</dim>
					<dim>64</dim>
					<dim>1</dim>
					<dim>1</dim>
				</port>
			</output>
		</layer>
		<layer id="256" name="291" type="Convolution" version="opset1">
			<data strides="1, 1" dilations="1, 1" pads_begin="0, 0" pads_end="0, 0" auto_pad="explicit" />
			<input>
				<port id="0" precision="FP32">
					<dim>1</dim>
					<dim>64</dim>
					<dim>30</dim>
					<dim>40</dim>
				</port>
				<port id="1" precision="FP32">
					<dim>8</dim>
					<dim>64</dim>
					<dim>1</dim>
					<dim>1</dim>
				</port>
			</input>
			<output>
				<port id="2" precision="FP32" names="291">
					<dim>1</dim>
					<dim>8</dim>
					<dim>30</dim>
					<dim>40</dim>
				</port>
			</output>
		</layer>
		<layer id="257" name="base_net.7.branch1.0.bn.weight_compressed" type="Const" version="opset1">
			<data element_type="f16" shape="8" offset="44496" size="16" />
			<output>
				<port id="0" precision="FP16" names="base_net.7.branch1.0.bn.weight">
					<dim>8</dim>
				</port>
			</output>
		</layer>
		<layer id="258" name="base_net.7.branch1.0.bn.weight" type="Convert" version="opset1">
			<data destination_type="f32" />
			<rt_info>
				<attribute name="decompression" version="0" />
			</rt_info>
			<input>
				<port id="0" precision="FP16">
					<dim>8</dim>
				</port>
			</input>
			<output>
				<port id="1" precision="FP32">
					<dim>8</dim>
				</port>
			</output>
		</layer>
		<layer id="259" name="base_net.7.branch1.0.bn.bias_compressed" type="Const" version="opset1">
			<data element_type="f16" shape="8" offset="44512" size="16" />
			<output>
				<port id="0" precision="FP16" names="base_net.7.branch1.0.bn.bias">
					<dim>8</dim>
				</port>
			</output>
		</layer>
		<layer id="260" name="base_net.7.branch1.0.bn.bias" type="Convert" version="opset1">
			<data destination_type="f32" />
			<rt_info>
				<attribute name="decompression" version="0" />
			</rt_info>
			<input>
				<port id="0" precision="FP16">
					<dim>8</dim>
				</port>
			</input>
			<output>
				<port id="1" precision="FP32">
					<dim>8</dim>
				</port>
			</output>
		</layer>
		<layer id="261" name="base_net.7.branch1.0.bn.running_mean_compressed" type="Const" version="opset1">
			<data element_type="f16" shape="8" offset="44528" size="16" />
			<output>
				<port id="0" precision="FP16" names="base_net.7.branch1.0.bn.running_mean">
					<dim>8</dim>
				</port>
			</output>
		</layer>
		<layer id="262" name="base_net.7.branch1.0.bn.running_mean" type="Convert" version="opset1">
			<data destination_type="f32" />
			<rt_info>
				<attribute name="decompression" version="0" />
			</rt_info>
			<input>
				<port id="0" precision="FP16">
					<dim>8</dim>
				</port>
			</input>
			<output>
				<port id="1" precision="FP32">
					<dim>8</dim>
				</port>
			</output>
		</layer>
		<layer id="263" name="base_net.7.branch1.0.bn.running_var_compressed" type="Const" version="opset1">
			<data element_type="f16" shape="8" offset="44544" size="16" />
			<output>
				<port id="0" precision="FP16" names="base_net.7.branch1.0.bn.running_var">
					<dim>8</dim>
				</port>
			</output>
		</layer>
		<layer id="264" name="base_net.7.branch1.0.bn.running_var" type="Convert" version="opset1">
			<data destination_type="f32" />
			<rt_info>
				<attribute name="decompression" version="0" />
			</rt_info>
			<input>
				<port id="0" precision="FP16">
					<dim>8</dim>
				</port>
			</input>
			<output>
				<port id="1" precision="FP32">
					<dim>8</dim>
				</port>
			</output>
		</layer>
		<layer id="265" name="292" type="BatchNormInference" version="opset5">
			<data epsilon="9.9999997473787516e-06" />
			<input>
				<port id="0" precision="FP32">
					<dim>1</dim>
					<dim>8</dim>
					<dim>30</dim>
					<dim>40</dim>
				</port>
				<port id="1" precision="FP32">
					<dim>8</dim>
				</port>
				<port id="2" precision="FP32">
					<dim>8</dim>
				</port>
				<port id="3" precision="FP32">
					<dim>8</dim>
				</port>
				<port id="4" precision="FP32">
					<dim>8</dim>
				</port>
			</input>
			<output>
				<port id="5" precision="FP32" names="292">
					<dim>1</dim>
					<dim>8</dim>
					<dim>30</dim>
					<dim>40</dim>
				</port>
			</output>
		</layer>
		<layer id="266" name="base_net.7.branch1.1.conv.weight_compressed" type="Const" version="opset1">
			<data element_type="f16" shape="16, 8, 3, 3" offset="44560" size="2304" />
			<output>
				<port id="0" precision="FP16" names="base_net.7.branch1.1.conv.weight">
					<dim>16</dim>
					<dim>8</dim>
					<dim>3</dim>
					<dim>3</dim>
				</port>
			</output>
		</layer>
		<layer id="267" name="base_net.7.branch1.1.conv.weight" type="Convert" version="opset1">
			<data destination_type="f32" />
			<rt_info>
				<attribute name="decompression" version="0" />
			</rt_info>
			<input>
				<port id="0" precision="FP16">
					<dim>16</dim>
					<dim>8</dim>
					<dim>3</dim>
					<dim>3</dim>
				</port>
			</input>
			<output>
				<port id="1" precision="FP32">
					<dim>16</dim>
					<dim>8</dim>
					<dim>3</dim>
					<dim>3</dim>
				</port>
			</output>
		</layer>
		<layer id="268" name="293" type="Convolution" version="opset1">
			<data strides="1, 1" dilations="1, 1" pads_begin="1, 1" pads_end="1, 1" auto_pad="explicit" />
			<input>
				<port id="0" precision="FP32">
					<dim>1</dim>
					<dim>8</dim>
					<dim>30</dim>
					<dim>40</dim>
				</port>
				<port id="1" precision="FP32">
					<dim>16</dim>
					<dim>8</dim>
					<dim>3</dim>
					<dim>3</dim>
				</port>
			</input>
			<output>
				<port id="2" precision="FP32" names="293">
					<dim>1</dim>
					<dim>16</dim>
					<dim>30</dim>
					<dim>40</dim>
				</port>
			</output>
		</layer>
		<layer id="269" name="base_net.7.branch1.1.bn.weight_compressed" type="Const" version="opset1">
			<data element_type="f16" shape="16" offset="46864" size="32" />
			<output>
				<port id="0" precision="FP16" names="base_net.7.branch1.1.bn.weight">
					<dim>16</dim>
				</port>
			</output>
		</layer>
		<layer id="270" name="base_net.7.branch1.1.bn.weight" type="Convert" version="opset1">
			<data destination_type="f32" />
			<rt_info>
				<attribute name="decompression" version="0" />
			</rt_info>
			<input>
				<port id="0" precision="FP16">
					<dim>16</dim>
				</port>
			</input>
			<output>
				<port id="1" precision="FP32">
					<dim>16</dim>
				</port>
			</output>
		</layer>
		<layer id="271" name="base_net.7.branch1.1.bn.bias_compressed" type="Const" version="opset1">
			<data element_type="f16" shape="16" offset="46896" size="32" />
			<output>
				<port id="0" precision="FP16" names="base_net.7.branch1.1.bn.bias">
					<dim>16</dim>
				</port>
			</output>
		</layer>
		<layer id="272" name="base_net.7.branch1.1.bn.bias" type="Convert" version="opset1">
			<data destination_type="f32" />
			<rt_info>
				<attribute name="decompression" version="0" />
			</rt_info>
			<input>
				<port id="0" precision="FP16">
					<dim>16</dim>
				</port>
			</input>
			<output>
				<port id="1" precision="FP32">
					<dim>16</dim>
				</port>
			</output>
		</layer>
		<layer id="273" name="base_net.7.branch1.1.bn.running_mean_compressed" type="Const" version="opset1">
			<data element_type="f16" shape="16" offset="46928" size="32" />
			<output>
				<port id="0" precision="FP16" names="base_net.7.branch1.1.bn.running_mean">
					<dim>16</dim>
				</port>
			</output>
		</layer>
		<layer id="274" name="base_net.7.branch1.1.bn.running_mean" type="Convert" version="opset1">
			<data destination_type="f32" />
			<rt_info>
				<attribute name="decompression" version="0" />
			</rt_info>
			<input>
				<port id="0" precision="FP16">
					<dim>16</dim>
				</port>
			</input>
			<output>
				<port id="1" precision="FP32">
					<dim>16</dim>
				</port>
			</output>
		</layer>
		<layer id="275" name="base_net.7.branch1.1.bn.running_var_compressed" type="Const" version="opset1">
			<data element_type="f16" shape="16" offset="46960" size="32" />
			<output>
				<port id="0" precision="FP16" names="base_net.7.branch1.1.bn.running_var">
					<dim>16</dim>
				</port>
			</output>
		</layer>
		<layer id="276" name="base_net.7.branch1.1.bn.running_var" type="Convert" version="opset1">
			<data destination_type="f32" />
			<rt_info>
				<attribute name="decompression" version="0" />
			</rt_info>
			<input>
				<port id="0" precision="FP16">
					<dim>16</dim>
				</port>
			</input>
			<output>
				<port id="1" precision="FP32">
					<dim>16</dim>
				</port>
			</output>
		</layer>
		<layer id="277" name="294" type="BatchNormInference" version="opset5">
			<data epsilon="9.9999997473787516e-06" />
			<input>
				<port id="0" precision="FP32">
					<dim>1</dim>
					<dim>16</dim>
					<dim>30</dim>
					<dim>40</dim>
				</port>
				<port id="1" precision="FP32">
					<dim>16</dim>
				</port>
				<port id="2" precision="FP32">
					<dim>16</dim>
				</port>
				<port id="3" precision="FP32">
					<dim>16</dim>
				</port>
				<port id="4" precision="FP32">
					<dim>16</dim>
				</port>
			</input>
			<output>
				<port id="5" precision="FP32" names="294">
					<dim>1</dim>
					<dim>16</dim>
					<dim>30</dim>
					<dim>40</dim>
				</port>
			</output>
		</layer>
		<layer id="278" name="295" type="ReLU" version="opset1">
			<input>
				<port id="0" precision="FP32">
					<dim>1</dim>
					<dim>16</dim>
					<dim>30</dim>
					<dim>40</dim>
				</port>
			</input>
			<output>
				<port id="1" precision="FP32" names="295">
					<dim>1</dim>
					<dim>16</dim>
					<dim>30</dim>
					<dim>40</dim>
				</port>
			</output>
		</layer>
		<layer id="279" name="base_net.7.branch1.2.conv.weight_compressed" type="Const" version="opset1">
			<data element_type="f16" shape="16, 16, 3, 3" offset="46992" size="4608" />
			<output>
				<port id="0" precision="FP16" names="base_net.7.branch1.2.conv.weight">
					<dim>16</dim>
					<dim>16</dim>
					<dim>3</dim>
					<dim>3</dim>
				</port>
			</output>
		</layer>
		<layer id="280" name="base_net.7.branch1.2.conv.weight" type="Convert" version="opset1">
			<data destination_type="f32" />
			<rt_info>
				<attribute name="decompression" version="0" />
			</rt_info>
			<input>
				<port id="0" precision="FP16">
					<dim>16</dim>
					<dim>16</dim>
					<dim>3</dim>
					<dim>3</dim>
				</port>
			</input>
			<output>
				<port id="1" precision="FP32">
					<dim>16</dim>
					<dim>16</dim>
					<dim>3</dim>
					<dim>3</dim>
				</port>
			</output>
		</layer>
		<layer id="281" name="296" type="Convolution" version="opset1">
			<data strides="1, 1" dilations="3, 3" pads_begin="3, 3" pads_end="3, 3" auto_pad="explicit" />
			<input>
				<port id="0" precision="FP32">
					<dim>1</dim>
					<dim>16</dim>
					<dim>30</dim>
					<dim>40</dim>
				</port>
				<port id="1" precision="FP32">
					<dim>16</dim>
					<dim>16</dim>
					<dim>3</dim>
					<dim>3</dim>
				</port>
			</input>
			<output>
				<port id="2" precision="FP32" names="296">
					<dim>1</dim>
					<dim>16</dim>
					<dim>30</dim>
					<dim>40</dim>
				</port>
			</output>
		</layer>
		<layer id="282" name="base_net.7.branch1.2.bn.weight_compressed" type="Const" version="opset1">
			<data element_type="f16" shape="16" offset="51600" size="32" />
			<output>
				<port id="0" precision="FP16" names="base_net.7.branch1.2.bn.weight">
					<dim>16</dim>
				</port>
			</output>
		</layer>
		<layer id="283" name="base_net.7.branch1.2.bn.weight" type="Convert" version="opset1">
			<data destination_type="f32" />
			<rt_info>
				<attribute name="decompression" version="0" />
			</rt_info>
			<input>
				<port id="0" precision="FP16">
					<dim>16</dim>
				</port>
			</input>
			<output>
				<port id="1" precision="FP32">
					<dim>16</dim>
				</port>
			</output>
		</layer>
		<layer id="284" name="base_net.7.branch1.2.bn.bias" type="Const" version="opset1">
			<data element_type="f32" shape="16" offset="51632" size="64" />
			<output>
				<port id="0" precision="FP32" names="base_net.7.branch1.2.bn.bias">
					<dim>16</dim>
				</port>
			</output>
		</layer>
		<layer id="285" name="base_net.7.branch1.2.bn.running_mean_compressed" type="Const" version="opset1">
			<data element_type="f16" shape="16" offset="51696" size="32" />
			<output>
				<port id="0" precision="FP16" names="base_net.7.branch1.2.bn.running_mean">
					<dim>16</dim>
				</port>
			</output>
		</layer>
		<layer id="286" name="base_net.7.branch1.2.bn.running_mean" type="Convert" version="opset1">
			<data destination_type="f32" />
			<rt_info>
				<attribute name="decompression" version="0" />
			</rt_info>
			<input>
				<port id="0" precision="FP16">
					<dim>16</dim>
				</port>
			</input>
			<output>
				<port id="1" precision="FP32">
					<dim>16</dim>
				</port>
			</output>
		</layer>
		<layer id="287" name="base_net.7.branch1.2.bn.running_var_compressed" type="Const" version="opset1">
			<data element_type="f16" shape="16" offset="51728" size="32" />
			<output>
				<port id="0" precision="FP16" names="base_net.7.branch1.2.bn.running_var">
					<dim>16</dim>
				</port>
			</output>
		</layer>
		<layer id="288" name="base_net.7.branch1.2.bn.running_var" type="Convert" version="opset1">
			<data destination_type="f32" />
			<rt_info>
				<attribute name="decompression" version="0" />
			</rt_info>
			<input>
				<port id="0" precision="FP16">
					<dim>16</dim>
				</port>
			</input>
			<output>
				<port id="1" precision="FP32">
					<dim>16</dim>
				</port>
			</output>
		</layer>
		<layer id="289" name="297" type="BatchNormInference" version="opset5">
			<data epsilon="9.9999997473787516e-06" />
			<input>
				<port id="0" precision="FP32">
					<dim>1</dim>
					<dim>16</dim>
					<dim>30</dim>
					<dim>40</dim>
				</port>
				<port id="1" precision="FP32">
					<dim>16</dim>
				</port>
				<port id="2" precision="FP32">
					<dim>16</dim>
				</port>
				<port id="3" precision="FP32">
					<dim>16</dim>
				</port>
				<port id="4" precision="FP32">
					<dim>16</dim>
				</port>
			</input>
			<output>
				<port id="5" precision="FP32" names="297">
					<dim>1</dim>
					<dim>16</dim>
					<dim>30</dim>
					<dim>40</dim>
				</port>
			</output>
		</layer>
		<layer id="290" name="base_net.7.branch2.0.conv.weight_compressed" type="Const" version="opset1">
			<data element_type="f16" shape="8, 64, 1, 1" offset="51760" size="1024" />
			<output>
				<port id="0" precision="FP16" names="base_net.7.branch2.0.conv.weight">
					<dim>8</dim>
					<dim>64</dim>
					<dim>1</dim>
					<dim>1</dim>
				</port>
			</output>
		</layer>
		<layer id="291" name="base_net.7.branch2.0.conv.weight" type="Convert" version="opset1">
			<data destination_type="f32" />
			<rt_info>
				<attribute name="decompression" version="0" />
			</rt_info>
			<input>
				<port id="0" precision="FP16">
					<dim>8</dim>
					<dim>64</dim>
					<dim>1</dim>
					<dim>1</dim>
				</port>
			</input>
			<output>
				<port id="1" precision="FP32">
					<dim>8</dim>
					<dim>64</dim>
					<dim>1</dim>
					<dim>1</dim>
				</port>
			</output>
		</layer>
		<layer id="292" name="298" type="Convolution" version="opset1">
			<data strides="1, 1" dilations="1, 1" pads_begin="0, 0" pads_end="0, 0" auto_pad="explicit" />
			<input>
				<port id="0" precision="FP32">
					<dim>1</dim>
					<dim>64</dim>
					<dim>30</dim>
					<dim>40</dim>
				</port>
				<port id="1" precision="FP32">
					<dim>8</dim>
					<dim>64</dim>
					<dim>1</dim>
					<dim>1</dim>
				</port>
			</input>
			<output>
				<port id="2" precision="FP32" names="298">
					<dim>1</dim>
					<dim>8</dim>
					<dim>30</dim>
					<dim>40</dim>
				</port>
			</output>
		</layer>
		<layer id="293" name="base_net.7.branch2.0.bn.weight_compressed" type="Const" version="opset1">
			<data element_type="f16" shape="8" offset="52784" size="16" />
			<output>
				<port id="0" precision="FP16" names="base_net.7.branch2.0.bn.weight">
					<dim>8</dim>
				</port>
			</output>
		</layer>
		<layer id="294" name="base_net.7.branch2.0.bn.weight" type="Convert" version="opset1">
			<data destination_type="f32" />
			<rt_info>
				<attribute name="decompression" version="0" />
			</rt_info>
			<input>
				<port id="0" precision="FP16">
					<dim>8</dim>
				</port>
			</input>
			<output>
				<port id="1" precision="FP32">
					<dim>8</dim>
				</port>
			</output>
		</layer>
		<layer id="295" name="base_net.7.branch2.0.bn.bias_compressed" type="Const" version="opset1">
			<data element_type="f16" shape="8" offset="52800" size="16" />
			<output>
				<port id="0" precision="FP16" names="base_net.7.branch2.0.bn.bias">
					<dim>8</dim>
				</port>
			</output>
		</layer>
		<layer id="296" name="base_net.7.branch2.0.bn.bias" type="Convert" version="opset1">
			<data destination_type="f32" />
			<rt_info>
				<attribute name="decompression" version="0" />
			</rt_info>
			<input>
				<port id="0" precision="FP16">
					<dim>8</dim>
				</port>
			</input>
			<output>
				<port id="1" precision="FP32">
					<dim>8</dim>
				</port>
			</output>
		</layer>
		<layer id="297" name="base_net.7.branch2.0.bn.running_mean_compressed" type="Const" version="opset1">
			<data element_type="f16" shape="8" offset="52816" size="16" />
			<output>
				<port id="0" precision="FP16" names="base_net.7.branch2.0.bn.running_mean">
					<dim>8</dim>
				</port>
			</output>
		</layer>
		<layer id="298" name="base_net.7.branch2.0.bn.running_mean" type="Convert" version="opset1">
			<data destination_type="f32" />
			<rt_info>
				<attribute name="decompression" version="0" />
			</rt_info>
			<input>
				<port id="0" precision="FP16">
					<dim>8</dim>
				</port>
			</input>
			<output>
				<port id="1" precision="FP32">
					<dim>8</dim>
				</port>
			</output>
		</layer>
		<layer id="299" name="base_net.7.branch2.0.bn.running_var_compressed" type="Const" version="opset1">
			<data element_type="f16" shape="8" offset="52832" size="16" />
			<output>
				<port id="0" precision="FP16" names="base_net.7.branch2.0.bn.running_var">
					<dim>8</dim>
				</port>
			</output>
		</layer>
		<layer id="300" name="base_net.7.branch2.0.bn.running_var" type="Convert" version="opset1">
			<data destination_type="f32" />
			<rt_info>
				<attribute name="decompression" version="0" />
			</rt_info>
			<input>
				<port id="0" precision="FP16">
					<dim>8</dim>
				</port>
			</input>
			<output>
				<port id="1" precision="FP32">
					<dim>8</dim>
				</port>
			</output>
		</layer>
		<layer id="301" name="299" type="BatchNormInference" version="opset5">
			<data epsilon="9.9999997473787516e-06" />
			<input>
				<port id="0" precision="FP32">
					<dim>1</dim>
					<dim>8</dim>
					<dim>30</dim>
					<dim>40</dim>
				</port>
				<port id="1" precision="FP32">
					<dim>8</dim>
				</port>
				<port id="2" precision="FP32">
					<dim>8</dim>
				</port>
				<port id="3" precision="FP32">
					<dim>8</dim>
				</port>
				<port id="4" precision="FP32">
					<dim>8</dim>
				</port>
			</input>
			<output>
				<port id="5" precision="FP32" names="299">
					<dim>1</dim>
					<dim>8</dim>
					<dim>30</dim>
					<dim>40</dim>
				</port>
			</output>
		</layer>
		<layer id="302" name="base_net.7.branch2.1.conv.weight_compressed" type="Const" version="opset1">
			<data element_type="f16" shape="12, 8, 3, 3" offset="52848" size="1728" />
			<output>
				<port id="0" precision="FP16" names="base_net.7.branch2.1.conv.weight">
					<dim>12</dim>
					<dim>8</dim>
					<dim>3</dim>
					<dim>3</dim>
				</port>
			</output>
		</layer>
		<layer id="303" name="base_net.7.branch2.1.conv.weight" type="Convert" version="opset1">
			<data destination_type="f32" />
			<rt_info>
				<attribute name="decompression" version="0" />
			</rt_info>
			<input>
				<port id="0" precision="FP16">
					<dim>12</dim>
					<dim>8</dim>
					<dim>3</dim>
					<dim>3</dim>
				</port>
			</input>
			<output>
				<port id="1" precision="FP32">
					<dim>12</dim>
					<dim>8</dim>
					<dim>3</dim>
					<dim>3</dim>
				</port>
			</output>
		</layer>
		<layer id="304" name="300" type="Convolution" version="opset1">
			<data strides="1, 1" dilations="1, 1" pads_begin="1, 1" pads_end="1, 1" auto_pad="explicit" />
			<input>
				<port id="0" precision="FP32">
					<dim>1</dim>
					<dim>8</dim>
					<dim>30</dim>
					<dim>40</dim>
				</port>
				<port id="1" precision="FP32">
					<dim>12</dim>
					<dim>8</dim>
					<dim>3</dim>
					<dim>3</dim>
				</port>
			</input>
			<output>
				<port id="2" precision="FP32" names="300">
					<dim>1</dim>
					<dim>12</dim>
					<dim>30</dim>
					<dim>40</dim>
				</port>
			</output>
		</layer>
		<layer id="305" name="base_net.7.branch2.1.bn.weight_compressed" type="Const" version="opset1">
			<data element_type="f16" shape="12" offset="54576" size="24" />
			<output>
				<port id="0" precision="FP16" names="base_net.7.branch2.1.bn.weight">
					<dim>12</dim>
				</port>
			</output>
		</layer>
		<layer id="306" name="base_net.7.branch2.1.bn.weight" type="Convert" version="opset1">
			<data destination_type="f32" />
			<rt_info>
				<attribute name="decompression" version="0" />
			</rt_info>
			<input>
				<port id="0" precision="FP16">
					<dim>12</dim>
				</port>
			</input>
			<output>
				<port id="1" precision="FP32">
					<dim>12</dim>
				</port>
			</output>
		</layer>
		<layer id="307" name="base_net.7.branch2.1.bn.bias_compressed" type="Const" version="opset1">
			<data element_type="f16" shape="12" offset="54600" size="24" />
			<output>
				<port id="0" precision="FP16" names="base_net.7.branch2.1.bn.bias">
					<dim>12</dim>
				</port>
			</output>
		</layer>
		<layer id="308" name="base_net.7.branch2.1.bn.bias" type="Convert" version="opset1">
			<data destination_type="f32" />
			<rt_info>
				<attribute name="decompression" version="0" />
			</rt_info>
			<input>
				<port id="0" precision="FP16">
					<dim>12</dim>
				</port>
			</input>
			<output>
				<port id="1" precision="FP32">
					<dim>12</dim>
				</port>
			</output>
		</layer>
		<layer id="309" name="base_net.7.branch2.1.bn.running_mean_compressed" type="Const" version="opset1">
			<data element_type="f16" shape="12" offset="54624" size="24" />
			<output>
				<port id="0" precision="FP16" names="base_net.7.branch2.1.bn.running_mean">
					<dim>12</dim>
				</port>
			</output>
		</layer>
		<layer id="310" name="base_net.7.branch2.1.bn.running_mean" type="Convert" version="opset1">
			<data destination_type="f32" />
			<rt_info>
				<attribute name="decompression" version="0" />
			</rt_info>
			<input>
				<port id="0" precision="FP16">
					<dim>12</dim>
				</port>
			</input>
			<output>
				<port id="1" precision="FP32">
					<dim>12</dim>
				</port>
			</output>
		</layer>
		<layer id="311" name="base_net.7.branch2.1.bn.running_var_compressed" type="Const" version="opset1">
			<data element_type="f16" shape="12" offset="54648" size="24" />
			<output>
				<port id="0" precision="FP16" names="base_net.7.branch2.1.bn.running_var">
					<dim>12</dim>
				</port>
			</output>
		</layer>
		<layer id="312" name="base_net.7.branch2.1.bn.running_var" type="Convert" version="opset1">
			<data destination_type="f32" />
			<rt_info>
				<attribute name="decompression" version="0" />
			</rt_info>
			<input>
				<port id="0" precision="FP16">
					<dim>12</dim>
				</port>
			</input>
			<output>
				<port id="1" precision="FP32">
					<dim>12</dim>
				</port>
			</output>
		</layer>
		<layer id="313" name="301" type="BatchNormInference" version="opset5">
			<data epsilon="9.9999997473787516e-06" />
			<input>
				<port id="0" precision="FP32">
					<dim>1</dim>
					<dim>12</dim>
					<dim>30</dim>
					<dim>40</dim>
				</port>
				<port id="1" precision="FP32">
					<dim>12</dim>
				</port>
				<port id="2" precision="FP32">
					<dim>12</dim>
				</port>
				<port id="3" precision="FP32">
					<dim>12</dim>
				</port>
				<port id="4" precision="FP32">
					<dim>12</dim>
				</port>
			</input>
			<output>
				<port id="5" precision="FP32" names="301">
					<dim>1</dim>
					<dim>12</dim>
					<dim>30</dim>
					<dim>40</dim>
				</port>
			</output>
		</layer>
		<layer id="314" name="302" type="ReLU" version="opset1">
			<input>
				<port id="0" precision="FP32">
					<dim>1</dim>
					<dim>12</dim>
					<dim>30</dim>
					<dim>40</dim>
				</port>
			</input>
			<output>
				<port id="1" precision="FP32" names="302">
					<dim>1</dim>
					<dim>12</dim>
					<dim>30</dim>
					<dim>40</dim>
				</port>
			</output>
		</layer>
		<layer id="315" name="base_net.7.branch2.2.conv.weight_compressed" type="Const" version="opset1">
			<data element_type="f16" shape="16, 12, 3, 3" offset="54672" size="3456" />
			<output>
				<port id="0" precision="FP16" names="base_net.7.branch2.2.conv.weight">
					<dim>16</dim>
					<dim>12</dim>
					<dim>3</dim>
					<dim>3</dim>
				</port>
			</output>
		</layer>
		<layer id="316" name="base_net.7.branch2.2.conv.weight" type="Convert" version="opset1">
			<data destination_type="f32" />
			<rt_info>
				<attribute name="decompression" version="0" />
			</rt_info>
			<input>
				<port id="0" precision="FP16">
					<dim>16</dim>
					<dim>12</dim>
					<dim>3</dim>
					<dim>3</dim>
				</port>
			</input>
			<output>
				<port id="1" precision="FP32">
					<dim>16</dim>
					<dim>12</dim>
					<dim>3</dim>
					<dim>3</dim>
				</port>
			</output>
		</layer>
		<layer id="317" name="303" type="Convolution" version="opset1">
			<data strides="1, 1" dilations="1, 1" pads_begin="1, 1" pads_end="1, 1" auto_pad="explicit" />
			<input>
				<port id="0" precision="FP32">
					<dim>1</dim>
					<dim>12</dim>
					<dim>30</dim>
					<dim>40</dim>
				</port>
				<port id="1" precision="FP32">
					<dim>16</dim>
					<dim>12</dim>
					<dim>3</dim>
					<dim>3</dim>
				</port>
			</input>
			<output>
				<port id="2" precision="FP32" names="303">
					<dim>1</dim>
					<dim>16</dim>
					<dim>30</dim>
					<dim>40</dim>
				</port>
			</output>
		</layer>
		<layer id="318" name="base_net.7.branch2.2.bn.weight_compressed" type="Const" version="opset1">
			<data element_type="f16" shape="16" offset="58128" size="32" />
			<output>
				<port id="0" precision="FP16" names="base_net.7.branch2.2.bn.weight">
					<dim>16</dim>
				</port>
			</output>
		</layer>
		<layer id="319" name="base_net.7.branch2.2.bn.weight" type="Convert" version="opset1">
			<data destination_type="f32" />
			<rt_info>
				<attribute name="decompression" version="0" />
			</rt_info>
			<input>
				<port id="0" precision="FP16">
					<dim>16</dim>
				</port>
			</input>
			<output>
				<port id="1" precision="FP32">
					<dim>16</dim>
				</port>
			</output>
		</layer>
		<layer id="320" name="base_net.7.branch2.2.bn.bias_compressed" type="Const" version="opset1">
			<data element_type="f16" shape="16" offset="58160" size="32" />
			<output>
				<port id="0" precision="FP16" names="base_net.7.branch2.2.bn.bias">
					<dim>16</dim>
				</port>
			</output>
		</layer>
		<layer id="321" name="base_net.7.branch2.2.bn.bias" type="Convert" version="opset1">
			<data destination_type="f32" />
			<rt_info>
				<attribute name="decompression" version="0" />
			</rt_info>
			<input>
				<port id="0" precision="FP16">
					<dim>16</dim>
				</port>
			</input>
			<output>
				<port id="1" precision="FP32">
					<dim>16</dim>
				</port>
			</output>
		</layer>
		<layer id="322" name="base_net.7.branch2.2.bn.running_mean_compressed" type="Const" version="opset1">
			<data element_type="f16" shape="16" offset="58192" size="32" />
			<output>
				<port id="0" precision="FP16" names="base_net.7.branch2.2.bn.running_mean">
					<dim>16</dim>
				</port>
			</output>
		</layer>
		<layer id="323" name="base_net.7.branch2.2.bn.running_mean" type="Convert" version="opset1">
			<data destination_type="f32" />
			<rt_info>
				<attribute name="decompression" version="0" />
			</rt_info>
			<input>
				<port id="0" precision="FP16">
					<dim>16</dim>
				</port>
			</input>
			<output>
				<port id="1" precision="FP32">
					<dim>16</dim>
				</port>
			</output>
		</layer>
		<layer id="324" name="base_net.7.branch2.2.bn.running_var_compressed" type="Const" version="opset1">
			<data element_type="f16" shape="16" offset="58224" size="32" />
			<output>
				<port id="0" precision="FP16" names="base_net.7.branch2.2.bn.running_var">
					<dim>16</dim>
				</port>
			</output>
		</layer>
		<layer id="325" name="base_net.7.branch2.2.bn.running_var" type="Convert" version="opset1">
			<data destination_type="f32" />
			<rt_info>
				<attribute name="decompression" version="0" />
			</rt_info>
			<input>
				<port id="0" precision="FP16">
					<dim>16</dim>
				</port>
			</input>
			<output>
				<port id="1" precision="FP32">
					<dim>16</dim>
				</port>
			</output>
		</layer>
		<layer id="326" name="304" type="BatchNormInference" version="opset5">
			<data epsilon="9.9999997473787516e-06" />
			<input>
				<port id="0" precision="FP32">
					<dim>1</dim>
					<dim>16</dim>
					<dim>30</dim>
					<dim>40</dim>
				</port>
				<port id="1" precision="FP32">
					<dim>16</dim>
				</port>
				<port id="2" precision="FP32">
					<dim>16</dim>
				</port>
				<port id="3" precision="FP32">
					<dim>16</dim>
				</port>
				<port id="4" precision="FP32">
					<dim>16</dim>
				</port>
			</input>
			<output>
				<port id="5" precision="FP32" names="304">
					<dim>1</dim>
					<dim>16</dim>
					<dim>30</dim>
					<dim>40</dim>
				</port>
			</output>
		</layer>
		<layer id="327" name="305" type="ReLU" version="opset1">
			<input>
				<port id="0" precision="FP32">
					<dim>1</dim>
					<dim>16</dim>
					<dim>30</dim>
					<dim>40</dim>
				</port>
			</input>
			<output>
				<port id="1" precision="FP32" names="305">
					<dim>1</dim>
					<dim>16</dim>
					<dim>30</dim>
					<dim>40</dim>
				</port>
			</output>
		</layer>
		<layer id="328" name="base_net.7.branch2.3.conv.weight_compressed" type="Const" version="opset1">
			<data element_type="f16" shape="16, 16, 3, 3" offset="58256" size="4608" />
			<output>
				<port id="0" precision="FP16" names="base_net.7.branch2.3.conv.weight">
					<dim>16</dim>
					<dim>16</dim>
					<dim>3</dim>
					<dim>3</dim>
				</port>
			</output>
		</layer>
		<layer id="329" name="base_net.7.branch2.3.conv.weight" type="Convert" version="opset1">
			<data destination_type="f32" />
			<rt_info>
				<attribute name="decompression" version="0" />
			</rt_info>
			<input>
				<port id="0" precision="FP16">
					<dim>16</dim>
					<dim>16</dim>
					<dim>3</dim>
					<dim>3</dim>
				</port>
			</input>
			<output>
				<port id="1" precision="FP32">
					<dim>16</dim>
					<dim>16</dim>
					<dim>3</dim>
					<dim>3</dim>
				</port>
			</output>
		</layer>
		<layer id="330" name="306" type="Convolution" version="opset1">
			<data strides="1, 1" dilations="5, 5" pads_begin="5, 5" pads_end="5, 5" auto_pad="explicit" />
			<input>
				<port id="0" precision="FP32">
					<dim>1</dim>
					<dim>16</dim>
					<dim>30</dim>
					<dim>40</dim>
				</port>
				<port id="1" precision="FP32">
					<dim>16</dim>
					<dim>16</dim>
					<dim>3</dim>
					<dim>3</dim>
				</port>
			</input>
			<output>
				<port id="2" precision="FP32" names="306">
					<dim>1</dim>
					<dim>16</dim>
					<dim>30</dim>
					<dim>40</dim>
				</port>
			</output>
		</layer>
		<layer id="331" name="base_net.7.branch2.3.bn.weight_compressed" type="Const" version="opset1">
			<data element_type="f16" shape="16" offset="62864" size="32" />
			<output>
				<port id="0" precision="FP16" names="base_net.7.branch2.3.bn.weight">
					<dim>16</dim>
				</port>
			</output>
		</layer>
		<layer id="332" name="base_net.7.branch2.3.bn.weight" type="Convert" version="opset1">
			<data destination_type="f32" />
			<rt_info>
				<attribute name="decompression" version="0" />
			</rt_info>
			<input>
				<port id="0" precision="FP16">
					<dim>16</dim>
				</port>
			</input>
			<output>
				<port id="1" precision="FP32">
					<dim>16</dim>
				</port>
			</output>
		</layer>
		<layer id="333" name="base_net.7.branch2.3.bn.bias" type="Const" version="opset1">
			<data element_type="f32" shape="16" offset="62896" size="64" />
			<output>
				<port id="0" precision="FP32" names="base_net.7.branch2.3.bn.bias">
					<dim>16</dim>
				</port>
			</output>
		</layer>
		<layer id="334" name="base_net.7.branch2.3.bn.running_mean_compressed" type="Const" version="opset1">
			<data element_type="f16" shape="16" offset="62960" size="32" />
			<output>
				<port id="0" precision="FP16" names="base_net.7.branch2.3.bn.running_mean">
					<dim>16</dim>
				</port>
			</output>
		</layer>
		<layer id="335" name="base_net.7.branch2.3.bn.running_mean" type="Convert" version="opset1">
			<data destination_type="f32" />
			<rt_info>
				<attribute name="decompression" version="0" />
			</rt_info>
			<input>
				<port id="0" precision="FP16">
					<dim>16</dim>
				</port>
			</input>
			<output>
				<port id="1" precision="FP32">
					<dim>16</dim>
				</port>
			</output>
		</layer>
		<layer id="336" name="base_net.7.branch2.3.bn.running_var_compressed" type="Const" version="opset1">
			<data element_type="f16" shape="16" offset="62992" size="32" />
			<output>
				<port id="0" precision="FP16" names="base_net.7.branch2.3.bn.running_var">
					<dim>16</dim>
				</port>
			</output>
		</layer>
		<layer id="337" name="base_net.7.branch2.3.bn.running_var" type="Convert" version="opset1">
			<data destination_type="f32" />
			<rt_info>
				<attribute name="decompression" version="0" />
			</rt_info>
			<input>
				<port id="0" precision="FP16">
					<dim>16</dim>
				</port>
			</input>
			<output>
				<port id="1" precision="FP32">
					<dim>16</dim>
				</port>
			</output>
		</layer>
		<layer id="338" name="307" type="BatchNormInference" version="opset5">
			<data epsilon="9.9999997473787516e-06" />
			<input>
				<port id="0" precision="FP32">
					<dim>1</dim>
					<dim>16</dim>
					<dim>30</dim>
					<dim>40</dim>
				</port>
				<port id="1" precision="FP32">
					<dim>16</dim>
				</port>
				<port id="2" precision="FP32">
					<dim>16</dim>
				</port>
				<port id="3" precision="FP32">
					<dim>16</dim>
				</port>
				<port id="4" precision="FP32">
					<dim>16</dim>
				</port>
			</input>
			<output>
				<port id="5" precision="FP32" names="307">
					<dim>1</dim>
					<dim>16</dim>
					<dim>30</dim>
					<dim>40</dim>
				</port>
			</output>
		</layer>
		<layer id="339" name="308" type="Concat" version="opset1">
			<data axis="1" />
			<input>
				<port id="0" precision="FP32">
					<dim>1</dim>
					<dim>16</dim>
					<dim>30</dim>
					<dim>40</dim>
				</port>
				<port id="1" precision="FP32">
					<dim>1</dim>
					<dim>16</dim>
					<dim>30</dim>
					<dim>40</dim>
				</port>
				<port id="2" precision="FP32">
					<dim>1</dim>
					<dim>16</dim>
					<dim>30</dim>
					<dim>40</dim>
				</port>
			</input>
			<output>
				<port id="3" precision="FP32" names="308">
					<dim>1</dim>
					<dim>48</dim>
					<dim>30</dim>
					<dim>40</dim>
				</port>
			</output>
		</layer>
		<layer id="340" name="base_net.7.ConvLinear.conv.weight_compressed" type="Const" version="opset1">
			<data element_type="f16" shape="64, 48, 1, 1" offset="63024" size="6144" />
			<output>
				<port id="0" precision="FP16" names="base_net.7.ConvLinear.conv.weight">
					<dim>64</dim>
					<dim>48</dim>
					<dim>1</dim>
					<dim>1</dim>
				</port>
			</output>
		</layer>
		<layer id="341" name="base_net.7.ConvLinear.conv.weight" type="Convert" version="opset1">
			<data destination_type="f32" />
			<rt_info>
				<attribute name="decompression" version="0" />
			</rt_info>
			<input>
				<port id="0" precision="FP16">
					<dim>64</dim>
					<dim>48</dim>
					<dim>1</dim>
					<dim>1</dim>
				</port>
			</input>
			<output>
				<port id="1" precision="FP32">
					<dim>64</dim>
					<dim>48</dim>
					<dim>1</dim>
					<dim>1</dim>
				</port>
			</output>
		</layer>
		<layer id="342" name="309" type="Convolution" version="opset1">
			<data strides="1, 1" dilations="1, 1" pads_begin="0, 0" pads_end="0, 0" auto_pad="explicit" />
			<input>
				<port id="0" precision="FP32">
					<dim>1</dim>
					<dim>48</dim>
					<dim>30</dim>
					<dim>40</dim>
				</port>
				<port id="1" precision="FP32">
					<dim>64</dim>
					<dim>48</dim>
					<dim>1</dim>
					<dim>1</dim>
				</port>
			</input>
			<output>
				<port id="2" precision="FP32" names="309">
					<dim>1</dim>
					<dim>64</dim>
					<dim>30</dim>
					<dim>40</dim>
				</port>
			</output>
		</layer>
		<layer id="343" name="base_net.7.ConvLinear.bn.weight_compressed" type="Const" version="opset1">
			<data element_type="f16" shape="64" offset="69168" size="128" />
			<output>
				<port id="0" precision="FP16" names="base_net.7.ConvLinear.bn.weight">
					<dim>64</dim>
				</port>
			</output>
		</layer>
		<layer id="344" name="base_net.7.ConvLinear.bn.weight" type="Convert" version="opset1">
			<data destination_type="f32" />
			<rt_info>
				<attribute name="decompression" version="0" />
			</rt_info>
			<input>
				<port id="0" precision="FP16">
					<dim>64</dim>
				</port>
			</input>
			<output>
				<port id="1" precision="FP32">
					<dim>64</dim>
				</port>
			</output>
		</layer>
		<layer id="345" name="base_net.7.ConvLinear.bn.bias_compressed" type="Const" version="opset1">
			<data element_type="f16" shape="64" offset="69296" size="128" />
			<output>
				<port id="0" precision="FP16" names="base_net.7.ConvLinear.bn.bias">
					<dim>64</dim>
				</port>
			</output>
		</layer>
		<layer id="346" name="base_net.7.ConvLinear.bn.bias" type="Convert" version="opset1">
			<data destination_type="f32" />
			<rt_info>
				<attribute name="decompression" version="0" />
			</rt_info>
			<input>
				<port id="0" precision="FP16">
					<dim>64</dim>
				</port>
			</input>
			<output>
				<port id="1" precision="FP32">
					<dim>64</dim>
				</port>
			</output>
		</layer>
		<layer id="347" name="base_net.7.ConvLinear.bn.running_mean" type="Const" version="opset1">
			<data element_type="f32" shape="64" offset="69424" size="256" />
			<output>
				<port id="0" precision="FP32" names="base_net.7.ConvLinear.bn.running_mean">
					<dim>64</dim>
				</port>
			</output>
		</layer>
		<layer id="348" name="base_net.7.ConvLinear.bn.running_var_compressed" type="Const" version="opset1">
			<data element_type="f16" shape="64" offset="69680" size="128" />
			<output>
				<port id="0" precision="FP16" names="base_net.7.ConvLinear.bn.running_var">
					<dim>64</dim>
				</port>
			</output>
		</layer>
		<layer id="349" name="base_net.7.ConvLinear.bn.running_var" type="Convert" version="opset1">
			<data destination_type="f32" />
			<rt_info>
				<attribute name="decompression" version="0" />
			</rt_info>
			<input>
				<port id="0" precision="FP16">
					<dim>64</dim>
				</port>
			</input>
			<output>
				<port id="1" precision="FP32">
					<dim>64</dim>
				</port>
			</output>
		</layer>
		<layer id="350" name="310" type="BatchNormInference" version="opset5">
			<data epsilon="9.9999997473787516e-06" />
			<input>
				<port id="0" precision="FP32">
					<dim>1</dim>
					<dim>64</dim>
					<dim>30</dim>
					<dim>40</dim>
				</port>
				<port id="1" precision="FP32">
					<dim>64</dim>
				</port>
				<port id="2" precision="FP32">
					<dim>64</dim>
				</port>
				<port id="3" precision="FP32">
					<dim>64</dim>
				</port>
				<port id="4" precision="FP32">
					<dim>64</dim>
				</port>
			</input>
			<output>
				<port id="5" precision="FP32" names="310">
					<dim>1</dim>
					<dim>64</dim>
					<dim>30</dim>
					<dim>40</dim>
				</port>
			</output>
		</layer>
		<layer id="351" name="base_net.7.shortcut.conv.weight_compressed" type="Const" version="opset1">
			<data element_type="f16" shape="64, 64, 1, 1" offset="69808" size="8192" />
			<output>
				<port id="0" precision="FP16" names="base_net.7.shortcut.conv.weight">
					<dim>64</dim>
					<dim>64</dim>
					<dim>1</dim>
					<dim>1</dim>
				</port>
			</output>
		</layer>
		<layer id="352" name="base_net.7.shortcut.conv.weight" type="Convert" version="opset1">
			<data destination_type="f32" />
			<rt_info>
				<attribute name="decompression" version="0" />
			</rt_info>
			<input>
				<port id="0" precision="FP16">
					<dim>64</dim>
					<dim>64</dim>
					<dim>1</dim>
					<dim>1</dim>
				</port>
			</input>
			<output>
				<port id="1" precision="FP32">
					<dim>64</dim>
					<dim>64</dim>
					<dim>1</dim>
					<dim>1</dim>
				</port>
			</output>
		</layer>
		<layer id="353" name="311" type="Convolution" version="opset1">
			<data strides="1, 1" dilations="1, 1" pads_begin="0, 0" pads_end="0, 0" auto_pad="explicit" />
			<input>
				<port id="0" precision="FP32">
					<dim>1</dim>
					<dim>64</dim>
					<dim>30</dim>
					<dim>40</dim>
				</port>
				<port id="1" precision="FP32">
					<dim>64</dim>
					<dim>64</dim>
					<dim>1</dim>
					<dim>1</dim>
				</port>
			</input>
			<output>
				<port id="2" precision="FP32" names="311">
					<dim>1</dim>
					<dim>64</dim>
					<dim>30</dim>
					<dim>40</dim>
				</port>
			</output>
		</layer>
		<layer id="354" name="base_net.7.shortcut.bn.weight_compressed" type="Const" version="opset1">
			<data element_type="f16" shape="64" offset="78000" size="128" />
			<output>
				<port id="0" precision="FP16" names="base_net.7.shortcut.bn.weight">
					<dim>64</dim>
				</port>
			</output>
		</layer>
		<layer id="355" name="base_net.7.shortcut.bn.weight" type="Convert" version="opset1">
			<data destination_type="f32" />
			<rt_info>
				<attribute name="decompression" version="0" />
			</rt_info>
			<input>
				<port id="0" precision="FP16">
					<dim>64</dim>
				</port>
			</input>
			<output>
				<port id="1" precision="FP32">
					<dim>64</dim>
				</port>
			</output>
		</layer>
		<layer id="356" name="base_net.7.shortcut.bn.bias_compressed" type="Const" version="opset1">
			<data element_type="f16" shape="64" offset="69296" size="128" />
			<output>
				<port id="0" precision="FP16" names="base_net.7.shortcut.bn.bias">
					<dim>64</dim>
				</port>
			</output>
		</layer>
		<layer id="357" name="base_net.7.shortcut.bn.bias" type="Convert" version="opset1">
			<data destination_type="f32" />
			<rt_info>
				<attribute name="decompression" version="0" />
			</rt_info>
			<input>
				<port id="0" precision="FP16">
					<dim>64</dim>
				</port>
			</input>
			<output>
				<port id="1" precision="FP32">
					<dim>64</dim>
				</port>
			</output>
		</layer>
		<layer id="358" name="base_net.7.shortcut.bn.running_mean_compressed" type="Const" version="opset1">
			<data element_type="f16" shape="64" offset="78128" size="128" />
			<output>
				<port id="0" precision="FP16" names="base_net.7.shortcut.bn.running_mean">
					<dim>64</dim>
				</port>
			</output>
		</layer>
		<layer id="359" name="base_net.7.shortcut.bn.running_mean" type="Convert" version="opset1">
			<data destination_type="f32" />
			<rt_info>
				<attribute name="decompression" version="0" />
			</rt_info>
			<input>
				<port id="0" precision="FP16">
					<dim>64</dim>
				</port>
			</input>
			<output>
				<port id="1" precision="FP32">
					<dim>64</dim>
				</port>
			</output>
		</layer>
		<layer id="360" name="base_net.7.shortcut.bn.running_var_compressed" type="Const" version="opset1">
			<data element_type="f16" shape="64" offset="78256" size="128" />
			<output>
				<port id="0" precision="FP16" names="base_net.7.shortcut.bn.running_var">
					<dim>64</dim>
				</port>
			</output>
		</layer>
		<layer id="361" name="base_net.7.shortcut.bn.running_var" type="Convert" version="opset1">
			<data destination_type="f32" />
			<rt_info>
				<attribute name="decompression" version="0" />
			</rt_info>
			<input>
				<port id="0" precision="FP16">
					<dim>64</dim>
				</port>
			</input>
			<output>
				<port id="1" precision="FP32">
					<dim>64</dim>
				</port>
			</output>
		</layer>
		<layer id="362" name="312" type="BatchNormInference" version="opset5">
			<data epsilon="9.9999997473787516e-06" />
			<input>
				<port id="0" precision="FP32">
					<dim>1</dim>
					<dim>64</dim>
					<dim>30</dim>
					<dim>40</dim>
				</port>
				<port id="1" precision="FP32">
					<dim>64</dim>
				</port>
				<port id="2" precision="FP32">
					<dim>64</dim>
				</port>
				<port id="3" precision="FP32">
					<dim>64</dim>
				</port>
				<port id="4" precision="FP32">
					<dim>64</dim>
				</port>
			</input>
			<output>
				<port id="5" precision="FP32" names="312">
					<dim>1</dim>
					<dim>64</dim>
					<dim>30</dim>
					<dim>40</dim>
				</port>
			</output>
		</layer>
		<layer id="363" name="313" type="Add" version="opset1">
			<data auto_broadcast="numpy" />
			<input>
				<port id="0" precision="FP32">
					<dim>1</dim>
					<dim>64</dim>
					<dim>30</dim>
					<dim>40</dim>
				</port>
				<port id="1" precision="FP32">
					<dim>1</dim>
					<dim>64</dim>
					<dim>30</dim>
					<dim>40</dim>
				</port>
			</input>
			<output>
				<port id="2" precision="FP32" names="313">
					<dim>1</dim>
					<dim>64</dim>
					<dim>30</dim>
					<dim>40</dim>
				</port>
			</output>
		</layer>
		<layer id="364" name="314" type="ReLU" version="opset1">
			<input>
				<port id="0" precision="FP32">
					<dim>1</dim>
					<dim>64</dim>
					<dim>30</dim>
					<dim>40</dim>
				</port>
			</input>
			<output>
				<port id="1" precision="FP32" names="314">
					<dim>1</dim>
					<dim>64</dim>
					<dim>30</dim>
					<dim>40</dim>
				</port>
			</output>
		</layer>
		<layer id="365" name="regression_headers.0.0.weight_compressed" type="Const" version="opset1">
			<data element_type="f16" shape="64, 1, 3, 3" offset="78384" size="1152" />
			<output>
				<port id="0" precision="FP16" names="regression_headers.0.0.weight">
					<dim>64</dim>
					<dim>1</dim>
					<dim>3</dim>
					<dim>3</dim>
				</port>
			</output>
		</layer>
		<layer id="366" name="regression_headers.0.0.weight" type="Convert" version="opset1">
			<data destination_type="f32" />
			<rt_info>
				<attribute name="decompression" version="0" />
			</rt_info>
			<input>
				<port id="0" precision="FP16">
					<dim>64</dim>
					<dim>1</dim>
					<dim>3</dim>
					<dim>3</dim>
				</port>
			</input>
			<output>
				<port id="1" precision="FP32">
					<dim>64</dim>
					<dim>1</dim>
					<dim>3</dim>
					<dim>3</dim>
				</port>
			</output>
		</layer>
		<layer id="367" name="Constant_708" type="Const" version="opset1">
			<data element_type="i64" shape="1" offset="15592" size="8" />
			<rt_info>
				<attribute name="precise" version="0" />
			</rt_info>
			<output>
				<port id="0" precision="I64">
					<dim>1</dim>
				</port>
			</output>
		</layer>
		<layer id="368" name="ShapeOf_709" type="ShapeOf" version="opset3">
			<data output_type="i64" />
			<input>
				<port id="0" precision="FP32">
					<dim>64</dim>
					<dim>1</dim>
					<dim>3</dim>
					<dim>3</dim>
				</port>
			</input>
			<output>
				<port id="1" precision="I64">
					<dim>4</dim>
				</port>
			</output>
		</layer>
		<layer id="369" name="Constant_706" type="Const" version="opset1">
			<data element_type="i64" shape="" offset="1288" size="8" />
			<rt_info>
				<attribute name="precise" version="0" />
			</rt_info>
			<output>
				<port id="0" precision="I64" />
			</output>
		</layer>
		<layer id="370" name="Constant_707" type="Const" version="opset1">
			<data element_type="i64" shape="2" offset="1296" size="16" />
			<rt_info>
				<attribute name="precise" version="0" />
			</rt_info>
			<output>
				<port id="0" precision="I64">
					<dim>2</dim>
				</port>
			</output>
		</layer>
		<layer id="371" name="VariadicSplit_710" type="VariadicSplit" version="opset1">
			<input>
				<port id="0" precision="I64">
					<dim>4</dim>
				</port>
				<port id="1" precision="I64" />
				<port id="2" precision="I64">
					<dim>2</dim>
				</port>
			</input>
			<output>
				<port id="3" precision="I64">
					<dim>1</dim>
				</port>
				<port id="4" precision="I64">
					<dim>3</dim>
				</port>
			</output>
		</layer>
		<layer id="372" name="Divide_711" type="Divide" version="opset1">
			<data auto_broadcast="numpy" m_pythondiv="true" />
			<input>
				<port id="0" precision="I64">
					<dim>1</dim>
				</port>
				<port id="1" precision="I64">
					<dim>1</dim>
				</port>
			</input>
			<output>
				<port id="2" precision="I64">
					<dim>1</dim>
				</port>
			</output>
		</layer>
		<layer id="373" name="Concat_712" type="Concat" version="opset1">
			<data axis="0" />
			<input>
				<port id="0" precision="I64">
					<dim>1</dim>
				</port>
…
		<edge from-layer="425" from-port="0" to-layer="426" to-port="2" />
		<edge from-layer="426" from-port="3" to-layer="427" to-port="0" />
		<edge from-layer="426" from-port="4" to-layer="428" to-port="2" />
		<edge from-layer="427" from-port="2" to-layer="428" to-port="1" />
		<edge from-layer="428" from-port="3" to-layer="429" to-port="1" />
		<edge from-layer="429" from-port="2" to-layer="430" to-port="1" />
		<edge from-layer="430" from-port="2" to-layer="439" to-port="0" />
		<edge from-layer="431" from-port="0" to-layer="432" to-port="0" />
		<edge from-layer="432" from-port="1" to-layer="439" to-port="1" />
		<edge from-layer="433" from-port="0" to-layer="434" to-port="0" />
		<edge from-layer="434" from-port="1" to-layer="439" to-port="2" />
		<edge from-layer="435" from-port="0" to-layer="436" to-port="0" />
		<edge from-layer="436" from-port="1" to-layer="439" to-port="3" />
		<edge from-layer="437" from-port="0" to-layer="438" to-port="0" />
		<edge from-layer="438" from-port="1" to-layer="439" to-port="4" />
		<edge from-layer="439" from-port="5" to-layer="440" to-port="0" />
		<edge from-layer="440" from-port="1" to-layer="443" to-port="0" />
		<edge from-layer="441" from-port="0" to-layer="442" to-port="0" />
		<edge from-layer="442" from-port="1" to-layer="443" to-port="1" />
		<edge from-layer="443" from-port="2" to-layer="452" to-port="0" />
		<edge from-layer="444" from-port="0" to-layer="445" to-port="0" />
		<edge from-layer="445" from-port="1" to-layer="452" to-port="1" />
		<edge from-layer="446" from-port="0" to-layer="447" to-port="0" />
		<edge from-layer="447" from-port="1" to-layer="452" to-port="2" />
		<edge from-layer="448" from-port="0" to-layer="449" to-port="0" />
		<edge from-layer="449" from-port="1" to-layer="452" to-port="3" />
		<edge from-layer="450" from-port="0" to-layer="451" to-port="0" />
		<edge from-layer="451" from-port="1" to-layer="452" to-port="4" />
		<edge from-layer="452" from-port="5" to-layer="453" to-port="0" />
		<edge from-layer="453" from-port="1" to-layer="464" to-port="0" />
		<edge from-layer="454" from-port="0" to-layer="455" to-port="0" />
		<edge from-layer="455" from-port="1" to-layer="457" to-port="0" />
		<edge from-layer="455" from-port="1" to-layer="463" to-port="0" />
		<edge from-layer="456" from-port="0" to-layer="462" to-port="0" />
		<edge from-layer="456" from-port="0" to-layer="461" to-port="1" />
		<edge from-layer="457" from-port="1" to-layer="460" to-port="0" />
		<edge from-layer="458" from-port="0" to-layer="460" to-port="1" />
		<edge from-layer="459" from-port="0" to-layer="460" to-port="2" />
		<edge from-layer="460" from-port="4" to-layer="462" to-port="2" />
		<edge from-layer="460" from-port="3" to-layer="461" to-port="0" />
		<edge from-layer="461" from-port="2" to-layer="462" to-port="1" />
		<edge from-layer="462" from-port="3" to-layer="463" to-port="1" />
		<edge from-layer="463" from-port="2" to-layer="464" to-port="1" />
		<edge from-layer="464" from-port="2" to-layer="473" to-port="0" />
		<edge from-layer="465" from-port="0" to-layer="466" to-port="0" />
		<edge from-layer="466" from-port="1" to-layer="473" to-port="1" />
		<edge from-layer="467" from-port="0" to-layer="468" to-port="0" />
		<edge from-layer="468" from-port="1" to-layer="473" to-port="2" />
		<edge from-layer="469" from-port="0" to-layer="470" to-port="0" />
		<edge from-layer="470" from-port="1" to-layer="473" to-port="3" />
		<edge from-layer="471" from-port="0" to-layer="472" to-port="0" />
		<edge from-layer="472" from-port="1" to-layer="473" to-port="4" />
		<edge from-layer="473" from-port="5" to-layer="474" to-port="0" />
		<edge from-layer="474" from-port="1" to-layer="477" to-port="0" />
		<edge from-layer="475" from-port="0" to-layer="476" to-port="0" />
		<edge from-layer="476" from-port="1" to-layer="477" to-port="1" />
		<edge from-layer="477" from-port="2" to-layer="486" to-port="0" />
		<edge from-layer="478" from-port="0" to-layer="479" to-port="0" />
		<edge from-layer="479" from-port="1" to-layer="486" to-port="1" />
		<edge from-layer="480" from-port="0" to-layer="481" to-port="0" />
		<edge from-layer="481" from-port="1" to-layer="486" to-port="2" />
		<edge from-layer="482" from-port="0" to-layer="483" to-port="0" />
		<edge from-layer="483" from-port="1" to-layer="486" to-port="3" />
		<edge from-layer="484" from-port="0" to-layer="485" to-port="0" />
		<edge from-layer="485" from-port="1" to-layer="486" to-port="4" />
		<edge from-layer="486" from-port="5" to-layer="487" to-port="0" />
		<edge from-layer="487" from-port="1" to-layer="498" to-port="0" />
		<edge from-layer="488" from-port="0" to-layer="489" to-port="0" />
		<edge from-layer="489" from-port="1" to-layer="491" to-port="0" />
		<edge from-layer="489" from-port="1" to-layer="497" to-port="0" />
		<edge from-layer="490" from-port="0" to-layer="495" to-port="1" />
		<edge from-layer="490" from-port="0" to-layer="496" to-port="0" />
		<edge from-layer="491" from-port="1" to-layer="494" to-port="0" />
		<edge from-layer="492" from-port="0" to-layer="494" to-port="1" />
		<edge from-layer="493" from-port="0" to-layer="494" to-port="2" />
		<edge from-layer="494" from-port="3" to-layer="495" to-port="0" />
		<edge from-layer="494" from-port="4" to-layer="496" to-port="2" />
		<edge from-layer="495" from-port="2" to-layer="496" to-port="1" />
		<edge from-layer="496" from-port="3" to-layer="497" to-port="1" />
		<edge from-layer="497" from-port="2" to-layer="498" to-port="1" />
		<edge from-layer="498" from-port="2" to-layer="507" to-port="0" />
		<edge from-layer="499" from-port="0" to-layer="500" to-port="0" />
		<edge from-layer="500" from-port="1" to-layer="507" to-port="1" />
		<edge from-layer="501" from-port="0" to-layer="502" to-port="0" />
		<edge from-layer="502" from-port="1" to-layer="507" to-port="2" />
		<edge from-layer="503" from-port="0" to-layer="504" to-port="0" />
		<edge from-layer="504" from-port="1" to-layer="507" to-port="3" />
		<edge from-layer="505" from-port="0" to-layer="506" to-port="0" />
		<edge from-layer="506" from-port="1" to-layer="507" to-port="4" />
		<edge from-layer="507" from-port="5" to-layer="508" to-port="0" />
		<edge from-layer="508" from-port="1" to-layer="511" to-port="0" />
		<edge from-layer="509" from-port="0" to-layer="510" to-port="0" />
		<edge from-layer="510" from-port="1" to-layer="511" to-port="1" />
		<edge from-layer="511" from-port="2" to-layer="520" to-port="0" />
		<edge from-layer="512" from-port="0" to-layer="513" to-port="0" />
		<edge from-layer="513" from-port="1" to-layer="520" to-port="1" />
		<edge from-layer="514" from-port="0" to-layer="515" to-port="0" />
		<edge from-layer="515" from-port="1" to-layer="520" to-port="2" />
		<edge from-layer="516" from-port="0" to-layer="517" to-port="0" />
		<edge from-layer="517" from-port="1" to-layer="520" to-port="3" />
		<edge from-layer="518" from-port="0" to-layer="519" to-port="0" />
		<edge from-layer="519" from-port="1" to-layer="520" to-port="4" />
		<edge from-layer="520" from-port="5" to-layer="521" to-port="0" />
		<edge from-layer="521" from-port="1" to-layer="532" to-port="0" />
		<edge from-layer="521" from-port="1" to-layer="910" to-port="0" />
		<edge from-layer="521" from-port="1" to-layer="587" to-port="0" />
		<edge from-layer="522" from-port="0" to-layer="523" to-port="0" />
		<edge from-layer="523" from-port="1" to-layer="531" to-port="0" />
		<edge from-layer="523" from-port="1" to-layer="525" to-port="0" />
		<edge from-layer="524" from-port="0" to-layer="529" to-port="1" />
		<edge from-layer="524" from-port="0" to-layer="530" to-port="0" />
		<edge from-layer="525" from-port="1" to-layer="528" to-port="0" />
		<edge from-layer="526" from-port="0" to-layer="528" to-port="1" />
		<edge from-layer="527" from-port="0" to-layer="528" to-port="2" />
		<edge from-layer="528" from-port="4" to-layer="530" to-port="2" />
		<edge from-layer="528" from-port="3" to-layer="529" to-port="0" />
		<edge from-layer="529" from-port="2" to-layer="530" to-port="1" />
		<edge from-layer="530" from-port="3" to-layer="531" to-port="1" />
		<edge from-layer="531" from-port="2" to-layer="532" to-port="1" />
		<edge from-layer="532" from-port="2" to-layer="537" to-port="0" />
		<edge from-layer="532" from-port="2" to-layer="544" to-port="0" />
		<edge from-layer="533" from-port="0" to-layer="534" to-port="0" />
		<edge from-layer="534" from-port="1" to-layer="536" to-port="0" />
		<edge from-layer="534" from-port="1" to-layer="543" to-port="0" />
		<edge from-layer="535" from-port="0" to-layer="541" to-port="0" />
		<edge from-layer="535" from-port="0" to-layer="542" to-port="0" />
		<edge from-layer="536" from-port="1" to-layer="542" to-port="1" />
		<edge from-layer="537" from-port="1" to-layer="538" to-port="0" />
		<edge from-layer="538" from-port="1" to-layer="540" to-port="0" />
		<edge from-layer="539" from-port="0" to-layer="540" to-port="1" />
		<edge from-layer="540" from-port="2" to-layer="541" to-port="1" />
		<edge from-layer="541" from-port="2" to-layer="542" to-port="2" />
		<edge from-layer="542" from-port="3" to-layer="543" to-port="1" />
		<edge from-layer="543" from-port="2" to-layer="544" to-port="1" />
		<edge from-layer="544" from-port="2" to-layer="545" to-port="0" />
		<edge from-layer="545" from-port="1" to-layer="548" to-port="0" />
		<edge from-layer="546" from-port="0" to-layer="547" to-port="0" />
		<edge from-layer="547" from-port="1" to-layer="548" to-port="1" />
		<edge from-layer="548" from-port="2" to-layer="553" to-port="0" />
		<edge from-layer="548" from-port="2" to-layer="560" to-port="0" />
		<edge from-layer="549" from-port="0" to-layer="550" to-port="0" />
		<edge from-layer="550" from-port="1" to-layer="552" to-port="0" />
		<edge from-layer="550" from-port="1" to-layer="559" to-port="0" />
		<edge from-layer="551" from-port="0" to-layer="557" to-port="0" />
		<edge from-layer="551" from-port="0" to-layer="558" to-port="0" />
		<edge from-layer="552" from-port="1" to-layer="558" to-port="1" />
		<edge from-layer="553" from-port="1" to-layer="554" to-port="0" />
		<edge from-layer="554" from-port="1" to-layer="556" to-port="0" />
		<edge from-layer="555" from-port="0" to-layer="556" to-port="1" />
		<edge from-layer="556" from-port="2" to-layer="557" to-port="1" />
		<edge from-layer="557" from-port="2" to-layer="558" to-port="2" />
		<edge from-layer="558" from-port="3" to-layer="559" to-port="1" />
		<edge from-layer="559" from-port="2" to-layer="560" to-port="1" />
		<edge from-layer="560" from-port="2" to-layer="562" to-port="0" />
		<edge from-layer="561" from-port="0" to-layer="562" to-port="1" />
		<edge from-layer="562" from-port="2" to-layer="576" to-port="0" />
		<edge from-layer="562" from-port="2" to-layer="563" to-port="0" />
		<edge from-layer="563" from-port="1" to-layer="566" to-port="0" />
		<edge from-layer="564" from-port="0" to-layer="566" to-port="1" />
		<edge from-layer="565" from-port="0" to-layer="566" to-port="2" />
		<edge from-layer="566" from-port="3" to-layer="568" to-port="0" />
		<edge from-layer="567" from-port="0" to-layer="568" to-port="1" />
		<edge from-layer="568" from-port="2" to-layer="575" to-port="0" />
		<edge from-layer="569" from-port="0" to-layer="571" to-port="0" />
		<edge from-layer="570" from-port="0" to-layer="571" to-port="1" />
		<edge from-layer="571" from-port="2" to-layer="575" to-port="1" />
		<edge from-layer="572" from-port="0" to-layer="574" to-port="0" />
		<edge from-layer="573" from-port="0" to-layer="574" to-port="1" />
		<edge from-layer="574" from-port="2" to-layer="575" to-port="2" />
		<edge from-layer="575" from-port="3" to-layer="576" to-port="1" />
		<edge from-layer="576" from-port="2" to-layer="787" to-port="1" />
		<edge from-layer="577" from-port="0" to-layer="578" to-port="0" />
		<edge from-layer="578" from-port="1" to-layer="580" to-port="0" />
		<edge from-layer="578" from-port="1" to-layer="586" to-port="0" />
		<edge from-layer="579" from-port="0" to-layer="585" to-port="0" />
		<edge from-layer="579" from-port="0" to-layer="584" to-port="1" />
		<edge from-layer="580" from-port="1" to-layer="583" to-port="0" />
		<edge from-layer="581" from-port="0" to-layer="583" to-port="1" />
		<edge from-layer="582" from-port="0" to-layer="583" to-port="2" />
		<edge from-layer="583" from-port="4" to-layer="585" to-port="2" />
		<edge from-layer="583" from-port="3" to-layer="584" to-port="0" />
		<edge from-layer="584" from-port="2" to-layer="585" to-port="1" />
		<edge from-layer="585" from-port="3" to-layer="586" to-port="1" />
		<edge from-layer="586" from-port="2" to-layer="587" to-port="1" />
		<edge from-layer="587" from-port="2" to-layer="596" to-port="0" />
		<edge from-layer="588" from-port="0" to-layer="589" to-port="0" />
		<edge from-layer="589" from-port="1" to-layer="596" to-port="1" />
		<edge from-layer="590" from-port="0" to-layer="591" to-port="0" />
		<edge from-layer="591" from-port="1" to-layer="596" to-port="2" />
		<edge from-layer="592" from-port="0" to-layer="593" to-port="0" />
		<edge from-layer="593" from-port="1" to-layer="596" to-port="3" />
		<edge from-layer="594" from-port="0" to-layer="595" to-port="0" />
		<edge from-layer="595" from-port="1" to-layer="596" to-port="4" />
		<edge from-layer="596" from-port="5" to-layer="597" to-port="0" />
		<edge from-layer="597" from-port="1" to-layer="600" to-port="0" />
		<edge from-layer="598" from-port="0" to-layer="599" to-port="0" />
		<edge from-layer="599" from-port="1" to-layer="600" to-port="1" />
		<edge from-layer="600" from-port="2" to-layer="609" to-port="0" />
		<edge from-layer="601" from-port="0" to-layer="602" to-port="0" />
		<edge from-layer="602" from-port="1" to-layer="609" to-port="1" />
		<edge from-layer="603" from-port="0" to-layer="604" to-port="0" />
		<edge from-layer="604" from-port="1" to-layer="609" to-port="2" />
		<edge from-layer="605" from-port="0" to-layer="606" to-port="0" />
		<edge from-layer="606" from-port="1" to-layer="609" to-port="3" />
		<edge from-layer="607" from-port="0" to-layer="608" to-port="0" />
		<edge from-layer="608" from-port="1" to-layer="609" to-port="4" />
		<edge from-layer="609" from-port="5" to-layer="610" to-port="0" />
		<edge from-layer="610" from-port="1" to-layer="621" to-port="0" />
		<edge from-layer="611" from-port="0" to-layer="612" to-port="0" />
		<edge from-layer="612" from-port="1" to-layer="614" to-port="0" />
		<edge from-layer="612" from-port="1" to-layer="620" to-port="0" />
		<edge from-layer="613" from-port="0" to-layer="618" to-port="1" />
		<edge from-layer="613" from-port="0" to-layer="619" to-port="0" />
		<edge from-layer="614" from-port="1" to-layer="617" to-port="0" />
		<edge from-layer="615" from-port="0" to-layer="617" to-port="1" />
		<edge from-layer="616" from-port="0" to-layer="617" to-port="2" />
		<edge from-layer="617" from-port="3" to-layer="618" to-port="0" />
		<edge from-layer="617" from-port="4" to-layer="619" to-port="2" />
		<edge from-layer="618" from-port="2" to-layer="619" to-port="1" />
		<edge from-layer="619" from-port="3" to-layer="620" to-port="1" />
		<edge from-layer="620" from-port="2" to-layer="621" to-port="1" />
		<edge from-layer="621" from-port="2" to-layer="630" to-port="0" />
		<edge from-layer="622" from-port="0" to-layer="623" to-port="0" />
		<edge from-layer="623" from-port="1" to-layer="630" to-port="1" />
		<edge from-layer="624" from-port="0" to-layer="625" to-port="0" />
		<edge from-layer="625" from-port="1" to-layer="630" to-port="2" />
		<edge from-layer="626" from-port="0" to-layer="627" to-port="0" />
		<edge from-layer="627" from-port="1" to-layer="630" to-port="3" />
		<edge from-layer="628" from-port="0" to-layer="629" to-port="0" />
		<edge from-layer="629" from-port="1" to-layer="630" to-port="4" />
		<edge from-layer="630" from-port="5" to-layer="631" to-port="0" />
		<edge from-layer="631" from-port="1" to-layer="634" to-port="0" />
		<edge from-layer="632" from-port="0" to-layer="633" to-port="0" />
		<edge from-layer="633" from-port="1" to-layer="634" to-port="1" />
		<edge from-layer="634" from-port="2" to-layer="643" to-port="0" />
		<edge from-layer="635" from-port="0" to-layer="636" to-port="0" />
		<edge from-layer="636" from-port="1" to-layer="643" to-port="1" />
		<edge from-layer="637" from-port="0" to-layer="638" to-port="0" />
		<edge from-layer="638" from-port="1" to-layer="643" to-port="2" />
		<edge from-layer="639" from-port="0" to-layer="640" to-port="0" />
		<edge from-layer="640" from-port="1" to-layer="643" to-port="3" />
		<edge from-layer="641" from-port="0" to-layer="642" to-port="0" />
		<edge from-layer="642" from-port="1" to-layer="643" to-port="4" />
		<edge from-layer="643" from-port="5" to-layer="644" to-port="0" />
		<edge from-layer="644" from-port="1" to-layer="655" to-port="0" />
		<edge from-layer="644" from-port="1" to-layer="702" to-port="0" />
		<edge from-layer="644" from-port="1" to-layer="965" to-port="0" />
		<edge from-layer="645" from-port="0" to-layer="646" to-port="0" />
		<edge from-layer="646" from-port="1" to-layer="648" to-port="0" />
		<edge from-layer="646" from-port="1" to-layer="654" to-port="0" />
		<edge from-layer="647" from-port="0" to-layer="652" to-port="1" />
		<edge from-layer="647" from-port="0" to-layer="653" to-port="0" />
		<edge from-layer="648" from-port="1" to-layer="651" to-port="0" />
		<edge from-layer="649" from-port="0" to-layer="651" to-port="1" />
		<edge from-layer="650" from-port="0" to-layer="651" to-port="2" />
		<edge from-layer="651" from-port="3" to-layer="652" to-port="0" />
		<edge from-layer="651" from-port="4" to-layer="653" to-port="2" />
		<edge from-layer="652" from-port="2" to-layer="653" to-port="1" />
		<edge from-layer="653" from-port="3" to-layer="654" to-port="1" />
		<edge from-layer="654" from-port="2" to-layer="655" to-port="1" />
		<edge from-layer="655" from-port="2" to-layer="667" to-port="0" />
		<edge from-layer="655" from-port="2" to-layer="660" to-port="0" />
		<edge from-layer="656" from-port="0" to-layer="657" to-port="0" />
		<edge from-layer="657" from-port="1" to-layer="666" to-port="0" />
		<edge from-layer="657" from-port="1" to-layer="659" to-port="0" />
		<edge from-layer="658" from-port="0" to-layer="664" to-port="0" />
		<edge from-layer="658" from-port="0" to-layer="665" to-port="0" />
		<edge from-layer="659" from-port="1" to-layer="665" to-port="1" />
		<edge from-layer="660" from-port="1" to-layer="661" to-port="0" />
		<edge from-layer="661" from-port="1" to-layer="663" to-port="0" />
		<edge from-layer="662" from-port="0" to-layer="663" to-port="1" />
		<edge from-layer="663" from-port="2" to-layer="664" to-port="1" />
		<edge from-layer="664" from-port="2" to-layer="665" to-port="2" />
		<edge from-layer="665" from-port="3" to-layer="666" to-port="1" />
		<edge from-layer="666" from-port="2" to-layer="667" to-port="1" />
		<edge from-layer="667" from-port="2" to-layer="668" to-port="0" />
		<edge from-layer="668" from-port="1" to-layer="671" to-port="0" />
		<edge from-layer="669" from-port="0" to-layer="670" to-port="0" />
		<edge from-layer="670" from-port="1" to-layer="671" to-port="1" />
		<edge from-layer="671" from-port="2" to-layer="676" to-port="0" />
		<edge from-layer="671" from-port="2" to-layer="683" to-port="0" />
		<edge from-layer="672" from-port="0" to-layer="673" to-port="0" />
		<edge from-layer="673" from-port="1" to-layer="675" to-port="0" />
		<edge from-layer="673" from-port="1" to-layer="682" to-port="0" />
		<edge from-layer="674" from-port="0" to-layer="680" to-port="0" />
		<edge from-layer="674" from-port="0" to-layer="681" to-port="0" />
		<edge from-layer="675" from-port="1" to-layer="681" to-port="1" />
		<edge from-layer="676" from-port="1" to-layer="677" to-port="0" />
		<edge from-layer="677" from-port="1" to-layer="679" to-port="0" />
		<edge from-layer="678" from-port="0" to-layer="679" to-port="1" />
		<edge from-layer="679" from-port="2" to-layer="680" to-port="1" />
		<edge from-layer="680" from-port="2" to-layer="681" to-port="2" />
		<edge from-layer="681" from-port="3" to-layer="682" to-port="1" />
		<edge from-layer="682" from-port="2" to-layer="683" to-port="1" />
		<edge from-layer="683" from-port="2" to-layer="685" to-port="0" />
		<edge from-layer="684" from-port="0" to-layer="685" to-port="1" />
		<edge from-layer="685" from-port="2" to-layer="686" to-port="0" />
		<edge from-layer="685" from-port="2" to-layer="699" to-port="0" />
		<edge from-layer="686" from-port="1" to-layer="689" to-port="0" />
		<edge from-layer="687" from-port="0" to-layer="689" to-port="1" />
		<edge from-layer="688" from-port="0" to-layer="689" to-port="2" />
		<edge from-layer="689" from-port="3" to-layer="691" to-port="0" />
		<edge from-layer="690" from-port="0" to-layer="691" to-port="1" />
		<edge from-layer="691" from-port="2" to-layer="698" to-port="0" />
		<edge from-layer="692" from-port="0" to-layer="694" to-port="0" />
		<edge from-layer="693" from-port="0" to-layer="694" to-port="1" />
		<edge from-layer="694" from-port="2" to-layer="698" to-port="1" />
		<edge from-layer="695" from-port="0" to-layer="697" to-port="0" />
		<edge from-layer="696" from-port="0" to-layer="697" to-port="1" />
		<edge from-layer="697" from-port="2" to-layer="698" to-port="2" />
		<edge from-layer="698" from-port="3" to-layer="699" to-port="1" />
		<edge from-layer="699" from-port="2" to-layer="787" to-port="2" />
		<edge from-layer="700" from-port="0" to-layer="701" to-port="0" />
		<edge from-layer="701" from-port="1" to-layer="702" to-port="1" />
		<edge from-layer="702" from-port="2" to-layer="714" to-port="0" />
		<edge from-layer="702" from-port="2" to-layer="707" to-port="0" />
		<edge from-layer="703" from-port="0" to-layer="704" to-port="0" />
		<edge from-layer="704" from-port="1" to-layer="713" to-port="0" />
		<edge from-layer="704" from-port="1" to-layer="706" to-port="0" />
		<edge from-layer="705" from-port="0" to-layer="711" to-port="0" />
		<edge from-layer="705" from-port="0" to-layer="712" to-port="0" />
		<edge from-layer="706" from-port="1" to-layer="712" to-port="1" />
		<edge from-layer="707" from-port="1" to-layer="708" to-port="0" />
		<edge from-layer="708" from-port="1" to-layer="710" to-port="0" />
		<edge from-layer="709" from-port="0" to-layer="710" to-port="1" />
		<edge from-layer="710" from-port="2" to-layer="711" to-port="1" />
		<edge from-layer="711" from-port="2" to-layer="712" to-port="2" />
		<edge from-layer="712" from-port="3" to-layer="713" to-port="1" />
		<edge from-layer="713" from-port="2" to-layer="714" to-port="1" />
		<edge from-layer="714" from-port="2" to-layer="715" to-port="0" />
		<edge from-layer="715" from-port="1" to-layer="726" to-port="0" />
		<edge from-layer="716" from-port="0" to-layer="717" to-port="0" />
		<edge from-layer="717" from-port="1" to-layer="725" to-port="0" />
		<edge from-layer="717" from-port="1" to-layer="719" to-port="0" />
		<edge from-layer="718" from-port="0" to-layer="723" to-port="1" />
		<edge from-layer="718" from-port="0" to-layer="724" to-port="0" />
		<edge from-layer="719" from-port="1" to-layer="722" to-port="0" />
		<edge from-layer="720" from-port="0" to-layer="722" to-port="1" />
		<edge from-layer="721" from-port="0" to-layer="722" to-port="2" />
		<edge from-layer="722" from-port="4" to-layer="724" to-port="2" />
		<edge from-layer="722" from-port="3" to-layer="723" to-port="0" />
		<edge from-layer="723" from-port="2" to-layer="724" to-port="1" />
		<edge from-layer="724" from-port="3" to-layer="725" to-port="1" />
		<edge from-layer="725" from-port="2" to-layer="726" to-port="1" />
		<edge from-layer="726" from-port="2" to-layer="731" to-port="0" />
		<edge from-layer="726" from-port="2" to-layer="738" to-port="0" />
		<edge from-layer="727" from-port="0" to-layer="728" to-port="0" />
		<edge from-layer="728" from-port="1" to-layer="730" to-port="0" />
		<edge from-layer="728" from-port="1" to-layer="737" to-port="0" />
		<edge from-layer="729" from-port="0" to-layer="735" to-port="0" />
		<edge from-layer="729" from-port="0" to-layer="736" to-port="0" />
		<edge from-layer="730" from-port="1" to-layer="736" to-port="1" />
		<edge from-layer="731" from-port="1" to-layer="732" to-port="0" />
		<edge from-layer="732" from-port="1" to-layer="734" to-port="0" />
		<edge from-layer="733" from-port="0" to-layer="734" to-port="1" />
		<edge from-layer="734" from-port="2" to-layer="735" to-port="1" />
		<edge from-layer="735" from-port="2" to-layer="736" to-port="2" />
		<edge from-layer="736" from-port="3" to-layer="737" to-port="1" />
		<edge from-layer="737" from-port="2" to-layer="738" to-port="1" />
		<edge from-layer="738" from-port="2" to-layer="739" to-port="0" />
		<edge from-layer="739" from-port="1" to-layer="742" to-port="0" />
		<edge from-layer="740" from-port="0" to-layer="741" to-port="0" />
		<edge from-layer="741" from-port="1" to-layer="742" to-port="1" />
		<edge from-layer="742" from-port="2" to-layer="747" to-port="0" />
		<edge from-layer="742" from-port="2" to-layer="754" to-port="0" />
		<edge from-layer="743" from-port="0" to-layer="744" to-port="0" />
		<edge from-layer="744" from-port="1" to-layer="753" to-port="0" />
		<edge from-layer="744" from-port="1" to-layer="746" to-port="0" />
		<edge from-layer="745" from-port="0" to-layer="751" to-port="0" />
		<edge from-layer="745" from-port="0" to-layer="752" to-port="0" />
		<edge from-layer="746" from-port="1" to-layer="752" to-port="1" />
		<edge from-layer="747" from-port="1" to-layer="748" to-port="0" />
		<edge from-layer="748" from-port="1" to-layer="750" to-port="0" />
		<edge from-layer="749" from-port="0" to-layer="750" to-port="1" />
		<edge from-layer="750" from-port="2" to-layer="751" to-port="1" />
		<edge from-layer="751" from-port="2" to-layer="752" to-port="2" />
		<edge from-layer="752" from-port="3" to-layer="753" to-port="1" />
		<edge from-layer="753" from-port="2" to-layer="754" to-port="1" />
		<edge from-layer="754" from-port="2" to-layer="755" to-port="0" />
		<edge from-layer="755" from-port="1" to-layer="758" to-port="0" />
		<edge from-layer="755" from-port="1" to-layer="1012" to-port="0" />
		<edge from-layer="756" from-port="0" to-layer="757" to-port="0" />
		<edge from-layer="757" from-port="1" to-layer="758" to-port="1" />
		<edge from-layer="758" from-port="2" to-layer="763" to-port="0" />
		<edge from-layer="758" from-port="2" to-layer="770" to-port="0" />
		<edge from-layer="759" from-port="0" to-layer="760" to-port="0" />
		<edge from-layer="760" from-port="1" to-layer="762" to-port="0" />
		<edge from-layer="760" from-port="1" to-layer="769" to-port="0" />
		<edge from-layer="761" from-port="0" to-layer="767" to-port="0" />
		<edge from-layer="761" from-port="0" to-layer="768" to-port="0" />
		<edge from-layer="762" from-port="1" to-layer="768" to-port="1" />
		<edge from-layer="763" from-port="1" to-layer="764" to-port="0" />
		<edge from-layer="764" from-port="1" to-layer="766" to-port="0" />
		<edge from-layer="765" from-port="0" to-layer="766" to-port="1" />
		<edge from-layer="766" from-port="2" to-layer="767" to-port="1" />
		<edge from-layer="767" from-port="2" to-layer="768" to-port="2" />
		<edge from-layer="768" from-port="3" to-layer="769" to-port="1" />
		<edge from-layer="769" from-port="2" to-layer="770" to-port="1" />
		<edge from-layer="770" from-port="2" to-layer="772" to-port="0" />
		<edge from-layer="771" from-port="0" to-layer="772" to-port="1" />
		<edge from-layer="772" from-port="2" to-layer="786" to-port="0" />
		<edge from-layer="772" from-port="2" to-layer="773" to-port="0" />
		<edge from-layer="773" from-port="1" to-layer="776" to-port="0" />
		<edge from-layer="774" from-port="0" to-layer="776" to-port="1" />
		<edge from-layer="775" from-port="0" to-layer="776" to-port="2" />
		<edge from-layer="776" from-port="3" to-layer="778" to-port="0" />
		<edge from-layer="777" from-port="0" to-layer="778" to-port="1" />
		<edge from-layer="778" from-port="2" to-layer="785" to-port="0" />
		<edge from-layer="779" from-port="0" to-layer="781" to-port="0" />
		<edge from-layer="780" from-port="0" to-layer="781" to-port="1" />
		<edge from-layer="781" from-port="2" to-layer="785" to-port="1" />
		<edge from-layer="782" from-port="0" to-layer="784" to-port="0" />
		<edge from-layer="783" from-port="0" to-layer="784" to-port="1" />
		<edge from-layer="784" from-port="2" to-layer="785" to-port="2" />
		<edge from-layer="785" from-port="3" to-layer="786" to-port="1" />
		<edge from-layer="786" from-port="2" to-layer="787" to-port="3" />
		<edge from-layer="787" from-port="4" to-layer="792" to-port="0" />
		<edge from-layer="787" from-port="4" to-layer="806" to-port="0" />
		<edge from-layer="788" from-port="0" to-layer="792" to-port="1" />
		<edge from-layer="789" from-port="0" to-layer="792" to-port="2" />
		<edge from-layer="790" from-port="0" to-layer="792" to-port="3" />
		<edge from-layer="791" from-port="0" to-layer="792" to-port="4" />
		<edge from-layer="792" from-port="5" to-layer="795" to-port="0" />
		<edge from-layer="793" from-port="0" to-layer="794" to-port="0" />
		<edge from-layer="794" from-port="1" to-layer="795" to-port="1" />
		<edge from-layer="795" from-port="2" to-layer="798" to-port="0" />
		<edge from-layer="796" from-port="0" to-layer="797" to-port="0" />
		<edge from-layer="797" from-port="1" to-layer="798" to-port="1" />
		<edge from-layer="798" from-port="2" to-layer="801" to-port="0" />
		<edge from-layer="799" from-port="0" to-layer="800" to-port="0" />
		<edge from-layer="800" from-port="1" to-layer="801" to-port="1" />
		<edge from-layer="801" from-port="2" to-layer="814" to-port="0" />
		<edge from-layer="802" from-port="0" to-layer="806" to-port="1" />
		<edge from-layer="803" from-port="0" to-layer="806" to-port="2" />
		<edge from-layer="804" from-port="0" to-layer="806" to-port="3" />
		<edge from-layer="805" from-port="0" to-layer="806" to-port="4" />
		<edge from-layer="806" from-port="5" to-layer="809" to-port="0" />
		<edge from-layer="807" from-port="0" to-layer="808" to-port="0" />
		<edge from-layer="808" from-port="1" to-layer="809" to-port="1" />
		<edge from-layer="809" from-port="2" to-layer="810" to-port="0" />
		<edge from-layer="810" from-port="1" to-layer="813" to-port="0" />
		<edge from-layer="811" from-port="0" to-layer="812" to-port="0" />
		<edge from-layer="812" from-port="1" to-layer="813" to-port="1" />
		<edge from-layer="813" from-port="2" to-layer="814" to-port="1" />
		<edge from-layer="814" from-port="2" to-layer="819" to-port="0" />
		<edge from-layer="814" from-port="2" to-layer="824" to-port="0" />
		<edge from-layer="814" from-port="2" to-layer="833" to-port="0" />
		<edge from-layer="814" from-port="2" to-layer="838" to-port="0" />
		<edge from-layer="815" from-port="0" to-layer="819" to-port="1" />
		<edge from-layer="816" from-port="0" to-layer="819" to-port="2" />
		<edge from-layer="817" from-port="0" to-layer="819" to-port="3" />
		<edge from-layer="818" from-port="0" to-layer="819" to-port="4" />
		<edge from-layer="819" from-port="5" to-layer="828" to-port="0" />
		<edge from-layer="820" from-port="0" to-layer="824" to-port="1" />
		<edge from-layer="821" from-port="0" to-layer="824" to-port="2" />
		<edge from-layer="822" from-port="0" to-layer="824" to-port="3" />
		<edge from-layer="823" from-port="0" to-layer="824" to-port="4" />
		<edge from-layer="824" from-port="5" to-layer="827" to-port="0" />
		<edge from-layer="825" from-port="0" to-layer="826" to-port="0" />
		<edge from-layer="826" from-port="1" to-layer="827" to-port="1" />
		<edge from-layer="827" from-port="2" to-layer="828" to-port="1" />
		<edge from-layer="828" from-port="2" to-layer="843" to-port="0" />
		<edge from-layer="829" from-port="0" to-layer="833" to-port="1" />
		<edge from-layer="830" from-port="0" to-layer="833" to-port="2" />
		<edge from-layer="831" from-port="0" to-layer="833" to-port="3" />
		<edge from-layer="832" from-port="0" to-layer="833" to-port="4" />
		<edge from-layer="833" from-port="5" to-layer="842" to-port="0" />
		<edge from-layer="834" from-port="0" to-layer="838" to-port="1" />
		<edge from-layer="835" from-port="0" to-layer="838" to-port="2" />
		<edge from-layer="836" from-port="0" to-layer="838" to-port="3" />
		<edge from-layer="837" from-port="0" to-layer="838" to-port="4" />
		<edge from-layer="838" from-port="5" to-layer="841" to-port="0" />
		<edge from-layer="839" from-port="0" to-layer="840" to-port="0" />
		<edge from-layer="840" from-port="1" to-layer="841" to-port="1" />
		<edge from-layer="841" from-port="2" to-layer="842" to-port="1" />
		<edge from-layer="842" from-port="2" to-layer="843" to-port="1" />
		<edge from-layer="843" from-port="2" to-layer="844" to-port="0" />
		<edge from-layer="845" from-port="0" to-layer="846" to-port="0" />
		<edge from-layer="846" from-port="1" to-layer="848" to-port="0" />
		<edge from-layer="846" from-port="1" to-layer="854" to-port="0" />
		<edge from-layer="847" from-port="0" to-layer="853" to-port="0" />
		<edge from-layer="847" from-port="0" to-layer="852" to-port="1" />
		<edge from-layer="848" from-port="1" to-layer="851" to-port="0" />
		<edge from-layer="849" from-port="0" to-layer="851" to-port="1" />
		<edge from-layer="850" from-port="0" to-layer="851" to-port="2" />
		<edge from-layer="851" from-port="4" to-layer="853" to-port="2" />
		<edge from-layer="851" from-port="3" to-layer="852" to-port="0" />
		<edge from-layer="852" from-port="2" to-layer="853" to-port="1" />
		<edge from-layer="853" from-port="3" to-layer="854" to-port="1" />
		<edge from-layer="854" from-port="2" to-layer="855" to-port="1" />
		<edge from-layer="855" from-port="2" to-layer="860" to-port="0" />
		<edge from-layer="855" from-port="2" to-layer="867" to-port="0" />
		<edge from-layer="856" from-port="0" to-layer="857" to-port="0" />
		<edge from-layer="857" from-port="1" to-layer="859" to-port="0" />
		<edge from-layer="857" from-port="1" to-layer="866" to-port="0" />
		<edge from-layer="858" from-port="0" to-layer="865" to-port="0" />
		<edge from-layer="858" from-port="0" to-layer="864" to-port="0" />
		<edge from-layer="859" from-port="1" to-layer="865" to-port="1" />
		<edge from-layer="860" from-port="1" to-layer="861" to-port="0" />
		<edge from-layer="861" from-port="1" to-layer="863" to-port="0" />
		<edge from-layer="862" from-port="0" to-layer="863" to-port="1" />
		<edge from-layer="863" from-port="2" to-layer="864" to-port="1" />
		<edge from-layer="864" from-port="2" to-layer="865" to-port="2" />
		<edge from-layer="865" from-port="3" to-layer="866" to-port="1" />
		<edge from-layer="866" from-port="2" to-layer="867" to-port="1" />
		<edge from-layer="867" from-port="2" to-layer="868" to-port="0" />
		<edge from-layer="868" from-port="1" to-layer="871" to-port="0" />
		<edge from-layer="869" from-port="0" to-layer="870" to-port="0" />
		<edge from-layer="870" from-port="1" to-layer="871" to-port="1" />
		<edge from-layer="871" from-port="2" to-layer="876" to-port="0" />
		<edge from-layer="871" from-port="2" to-layer="883" to-port="0" />
		<edge from-layer="872" from-port="0" to-layer="873" to-port="0" />
		<edge from-layer="873" from-port="1" to-layer="875" to-port="0" />
		<edge from-layer="873" from-port="1" to-layer="882" to-port="0" />
		<edge from-layer="874" from-port="0" to-layer="881" to-port="0" />
		<edge from-layer="874" from-port="0" to-layer="880" to-port="0" />
		<edge from-layer="875" from-port="1" to-layer="881" to-port="1" />
		<edge from-layer="876" from-port="1" to-layer="877" to-port="0" />
		<edge from-layer="877" from-port="1" to-layer="879" to-port="0" />
		<edge from-layer="878" from-port="0" to-layer="879" to-port="1" />
		<edge from-layer="879" from-port="2" to-layer="880" to-port="1" />
		<edge from-layer="880" from-port="2" to-layer="881" to-port="2" />
		<edge from-layer="881" from-port="3" to-layer="882" to-port="1" />
		<edge from-layer="882" from-port="2" to-layer="883" to-port="1" />
		<edge from-layer="883" from-port="2" to-layer="885" to-port="0" />
		<edge from-layer="884" from-port="0" to-layer="885" to-port="1" />
		<edge from-layer="885" from-port="2" to-layer="886" to-port="0" />
		<edge from-layer="885" from-port="2" to-layer="899" to-port="0" />
		<edge from-layer="886" from-port="1" to-layer="889" to-port="0" />
		<edge from-layer="887" from-port="0" to-layer="889" to-port="1" />
		<edge from-layer="888" from-port="0" to-layer="889" to-port="2" />
		<edge from-layer="889" from-port="3" to-layer="891" to-port="0" />
		<edge from-layer="890" from-port="0" to-layer="891" to-port="1" />
		<edge from-layer="891" from-port="2" to-layer="898" to-port="0" />
		<edge from-layer="892" from-port="0" to-layer="894" to-port="0" />
		<edge from-layer="893" from-port="0" to-layer="894" to-port="1" />
		<edge from-layer="894" from-port="2" to-layer="898" to-port="1" />
		<edge from-layer="895" from-port="0" to-layer="897" to-port="0" />
		<edge from-layer="896" from-port="0" to-layer="897" to-port="1" />
		<edge from-layer="897" from-port="2" to-layer="898" to-port="2" />
		<edge from-layer="898" from-port="3" to-layer="899" to-port="1" />
		<edge from-layer="899" from-port="2" to-layer="1041" to-port="0" />
		<edge from-layer="900" from-port="0" to-layer="901" to-port="0" />
		<edge from-layer="901" from-port="1" to-layer="903" to-port="0" />
		<edge from-layer="901" from-port="1" to-layer="909" to-port="0" />
		<edge from-layer="902" from-port="0" to-layer="908" to-port="0" />
		<edge from-layer="902" from-port="0" to-layer="907" to-port="1" />
		<edge from-layer="903" from-port="1" to-layer="906" to-port="0" />
		<edge from-layer="904" from-port="0" to-layer="906" to-port="1" />
		<edge from-layer="905" from-port="0" to-layer="906" to-port="2" />
		<edge from-layer="906" from-port="3" to-layer="907" to-port="0" />
		<edge from-layer="906" from-port="4" to-layer="908" to-port="2" />
		<edge from-layer="907" from-port="2" to-layer="908" to-port="1" />
		<edge from-layer="908" from-port="3" to-layer="909" to-port="1" />
		<edge from-layer="909" from-port="2" to-layer="910" to-port="1" />
		<edge from-layer="910" from-port="2" to-layer="915" to-port="0" />
		<edge from-layer="910" from-port="2" to-layer="922" to-port="0" />
		<edge from-layer="911" from-port="0" to-layer="912" to-port="0" />
		<edge from-layer="912" from-port="1" to-layer="914" to-port="0" />
		<edge from-layer="912" from-port="1" to-layer="921" to-port="0" />
		<edge from-layer="913" from-port="0" to-layer="919" to-port="0" />
		<edge from-layer="913" from-port="0" to-layer="920" to-port="0" />
		<edge from-layer="914" from-port="1" to-layer="920" to-port="1" />
		<edge from-layer="915" from-port="1" to-layer="916" to-port="0" />
		<edge from-layer="916" from-port="1" to-layer="918" to-port="0" />
		<edge from-layer="917" from-port="0" to-layer="918" to-port="1" />
		<edge from-layer="918" from-port="2" to-layer="919" to-port="1" />
		<edge from-layer="919" from-port="2" to-layer="920" to-port="2" />
		<edge from-layer="920" from-port="3" to-layer="921" to-port="1" />
		<edge from-layer="921" from-port="2" to-layer="922" to-port="1" />
		<edge from-layer="922" from-port="2" to-layer="923" to-port="0" />
		<edge from-layer="923" from-port="1" to-layer="926" to-port="0" />
		<edge from-layer="924" from-port="0" to-layer="925" to-port="0" />
		<edge from-layer="925" from-port="1" to-layer="926" to-port="1" />
		<edge from-layer="926" from-port="2" to-layer="931" to-port="0" />
		<edge from-layer="926" from-port="2" to-layer="938" to-port="0" />
		<edge from-layer="927" from-port="0" to-layer="928" to-port="0" />
		<edge from-layer="928" from-port="1" to-layer="930" to-port="0" />
		<edge from-layer="928" from-port="1" to-layer="937" to-port="0" />
		<edge from-layer="929" from-port="0" to-layer="936" to-port="0" />
		<edge from-layer="929" from-port="0" to-layer="935" to-port="0" />
		<edge from-layer="930" from-port="1" to-layer="936" to-port="1" />
		<edge from-layer="931" from-port="1" to-layer="932" to-port="0" />
		<edge from-layer="932" from-port="1" to-layer="934" to-port="0" />
		<edge from-layer="933" from-port="0" to-layer="934" to-port="1" />
		<edge from-layer="934" from-port="2" to-layer="935" to-port="1" />
		<edge from-layer="935" from-port="2" to-layer="936" to-port="2" />
		<edge from-layer="936" from-port="3" to-layer="937" to-port="1" />
		<edge from-layer="937" from-port="2" to-layer="938" to-port="1" />
		<edge from-layer="938" from-port="2" to-layer="940" to-port="0" />
		<edge from-layer="939" from-port="0" to-layer="940" to-port="1" />
		<edge from-layer="940" from-port="2" to-layer="941" to-port="0" />
		<edge from-layer="940" from-port="2" to-layer="954" to-port="0" />
		<edge from-layer="941" from-port="1" to-layer="944" to-port="0" />
		<edge from-layer="942" from-port="0" to-layer="944" to-port="1" />
		<edge from-layer="943" from-port="0" to-layer="944" to-port="2" />
		<edge from-layer="944" from-port="3" to-layer="946" to-port="0" />
		<edge from-layer="945" from-port="0" to-layer="946" to-port="1" />
		<edge from-layer="946" from-port="2" to-layer="953" to-port="0" />
		<edge from-layer="947" from-port="0" to-layer="949" to-port="0" />
		<edge from-layer="948" from-port="0" to-layer="949" to-port="1" />
		<edge from-layer="949" from-port="2" to-layer="953" to-port="1" />
		<edge from-layer="950" from-port="0" to-layer="952" to-port="0" />
		<edge from-layer="951" from-port="0" to-layer="952" to-port="1" />
		<edge from-layer="952" from-port="2" to-layer="953" to-port="2" />
		<edge from-layer="953" from-port="3" to-layer="954" to-port="1" />
		<edge from-layer="954" from-port="2" to-layer="1041" to-port="1" />
		<edge from-layer="955" from-port="0" to-layer="956" to-port="0" />
		<edge from-layer="956" from-port="1" to-layer="958" to-port="0" />
		<edge from-layer="956" from-port="1" to-layer="964" to-port="0" />
		<edge from-layer="957" from-port="0" to-layer="963" to-port="0" />
		<edge from-layer="957" from-port="0" to-layer="962" to-port="1" />
		<edge from-layer="958" from-port="1" to-layer="961" to-port="0" />
		<edge from-layer="959" from-port="0" to-layer="961" to-port="1" />
		<edge from-layer="960" from-port="0" to-layer="961" to-port="2" />
		<edge from-layer="961" from-port="4" to-layer="963" to-port="2" />
		<edge from-layer="961" from-port="3" to-layer="962" to-port="0" />
		<edge from-layer="962" from-port="2" to-layer="963" to-port="1" />
		<edge from-layer="963" from-port="3" to-layer="964" to-port="1" />
		<edge from-layer="964" from-port="2" to-layer="965" to-port="1" />
		<edge from-layer="965" from-port="2" to-layer="970" to-port="0" />
		<edge from-layer="965" from-port="2" to-layer="977" to-port="0" />
		<edge from-layer="966" from-port="0" to-layer="967" to-port="0" />
		<edge from-layer="967" from-port="1" to-layer="969" to-port="0" />
		<edge from-layer="967" from-port="1" to-layer="976" to-port="0" />
		<edge from-layer="968" from-port="0" to-layer="975" to-port="0" />
		<edge from-layer="968" from-port="0" to-layer="974" to-port="0" />
		<edge from-layer="969" from-port="1" to-layer="975" to-port="1" />
		<edge from-layer="970" from-port="1" to-layer="971" to-port="0" />
		<edge from-layer="971" from-port="1" to-layer="973" to-port="0" />
		<edge from-layer="972" from-port="0" to-layer="973" to-port="1" />
		<edge from-layer="973" from-port="2" to-layer="974" to-port="1" />
		<edge from-layer="974" from-port="2" to-layer="975" to-port="2" />
		<edge from-layer="975" from-port="3" to-layer="976" to-port="1" />
		<edge from-layer="976" from-port="2" to-layer="977" to-port="1" />
		<edge from-layer="977" from-port="2" to-layer="978" to-port="0" />
		<edge from-layer="978" from-port="1" to-layer="981" to-port="0" />
		<edge from-layer="979" from-port="0" to-layer="980" to-port="0" />
		<edge from-layer="980" from-port="1" to-layer="981" to-port="1" />
		<edge from-layer="981" from-port="2" to-layer="986" to-port="0" />
		<edge from-layer="981" from-port="2" to-layer="993" to-port="0" />
		<edge from-layer="982" from-port="0" to-layer="983" to-port="0" />
		<edge from-layer="983" from-port="1" to-layer="985" to-port="0" />
		<edge from-layer="983" from-port="1" to-layer="992" to-port="0" />
		<edge from-layer="984" from-port="0" to-layer="990" to-port="0" />
		<edge from-layer="984" from-port="0" to-layer="991" to-port="0" />
		<edge from-layer="985" from-port="1" to-layer="991" to-port="1" />
		<edge from-layer="986" from-port="1" to-layer="987" to-port="0" />
		<edge from-layer="987" from-port="1" to-layer="989" to-port="0" />
		<edge from-layer="988" from-port="0" to-layer="989" to-port="1" />
		<edge from-layer="989" from-port="2" to-layer="990" to-port="1" />
		<edge from-layer="990" from-port="2" to-layer="991" to-port="2" />
		<edge from-layer="991" from-port="3" to-layer="992" to-port="1" />
		<edge from-layer="992" from-port="2" to-layer="993" to-port="1" />
		<edge from-layer="993" from-port="2" to-layer="995" to-port="0" />
		<edge from-layer="994" from-port="0" to-layer="995" to-port="1" />
		<edge from-layer="995" from-port="2" to-layer="996" to-port="0" />
		<edge from-layer="995" from-port="2" to-layer="1009" to-port="0" />
		<edge from-layer="996" from-port="1" to-layer="999" to-port="0" />
		<edge from-layer="997" from-port="0" to-layer="999" to-port="1" />
		<edge from-layer="998" from-port="0" to-layer="999" to-port="2" />
		<edge from-layer="999" from-port="3" to-layer="1001" to-port="0" />
		<edge from-layer="1000" from-port="0" to-layer="1001" to-port="1" />
		<edge from-layer="1001" from-port="2" to-layer="1008" to-port="0" />
		<edge from-layer="1002" from-port="0" to-layer="1004" to-port="0" />
		<edge from-layer="1003" from-port="0" to-layer="1004" to-port="1" />
		<edge from-layer="1004" from-port="2" to-layer="1008" to-port="1" />
		<edge from-layer="1005" from-port="0" to-layer="1007" to-port="0" />
		<edge from-layer="1006" from-port="0" to-layer="1007" to-port="1" />
		<edge from-layer="1007" from-port="2" to-layer="1008" to-port="2" />
		<edge from-layer="1008" from-port="3" to-layer="1009" to-port="1" />
		<edge from-layer="1009" from-port="2" to-layer="1041" to-port="2" />
		<edge from-layer="1010" from-port="0" to-layer="1011" to-port="0" />
		<edge from-layer="1011" from-port="1" to-layer="1012" to-port="1" />
		<edge from-layer="1012" from-port="2" to-layer="1017" to-port="0" />
		<edge from-layer="1012" from-port="2" to-layer="1024" to-port="0" />
		<edge from-layer="1013" from-port="0" to-layer="1014" to-port="0" />
		<edge from-layer="1014" from-port="1" to-layer="1016" to-port="0" />
		<edge from-layer="1014" from-port="1" to-layer="1023" to-port="0" />
		<edge from-layer="1015" from-port="0" to-layer="1021" to-port="0" />
		<edge from-layer="1015" from-port="0" to-layer="1022" to-port="0" />
		<edge from-layer="1016" from-port="1" to-layer="1022" to-port="1" />
		<edge from-layer="1017" from-port="1" to-layer="1018" to-port="0" />
		<edge from-layer="1018" from-port="1" to-layer="1020" to-port="0" />
		<edge from-layer="1019" from-port="0" to-layer="1020" to-port="1" />
		<edge from-layer="1020" from-port="2" to-layer="1021" to-port="1" />
		<edge from-layer="1021" from-port="2" to-layer="1022" to-port="2" />
		<edge from-layer="1022" from-port="3" to-layer="1023" to-port="1" />
		<edge from-layer="1023" from-port="2" to-layer="1024" to-port="1" />
		<edge from-layer="1024" from-port="2" to-layer="1026" to-port="0" />
		<edge from-layer="1025" from-port="0" to-layer="1026" to-port="1" />
		<edge from-layer="1026" from-port="2" to-layer="1040" to-port="0" />
		<edge from-layer="1026" from-port="2" to-layer="1027" to-port="0" />
		<edge from-layer="1027" from-port="1" to-layer="1030" to-port="0" />
		<edge from-layer="1028" from-port="0" to-layer="1030" to-port="1" />
		<edge from-layer="1029" from-port="0" to-layer="1030" to-port="2" />
		<edge from-layer="1030" from-port="3" to-layer="1032" to-port="0" />
		<edge from-layer="1031" from-port="0" to-layer="1032" to-port="1" />
		<edge from-layer="1032" from-port="2" to-layer="1039" to-port="0" />
		<edge from-layer="1033" from-port="0" to-layer="1035" to-port="0" />
		<edge from-layer="1034" from-port="0" to-layer="1035" to-port="1" />
		<edge from-layer="1035" from-port="2" to-layer="1039" to-port="1" />
		<edge from-layer="1036" from-port="0" to-layer="1038" to-port="0" />
		<edge from-layer="1037" from-port="0" to-layer="1038" to-port="1" />
		<edge from-layer="1038" from-port="2" to-layer="1039" to-port="2" />
		<edge from-layer="1039" from-port="3" to-layer="1040" to-port="1" />
		<edge from-layer="1040" from-port="2" to-layer="1041" to-port="3" />
		<edge from-layer="1041" from-port="4" to-layer="1042" to-port="0" />
		<edge from-layer="1041" from-port="4" to-layer="1051" to-port="0" />
		<edge from-layer="1041" from-port="4" to-layer="1053" to-port="0" />
		<edge from-layer="1042" from-port="1" to-layer="1046" to-port="0" />
		<edge from-layer="1043" from-port="0" to-layer="1046" to-port="1" />
		<edge from-layer="1044" from-port="0" to-layer="1046" to-port="2" />
		<edge from-layer="1045" from-port="0" to-layer="1046" to-port="3" />
		<edge from-layer="1046" from-port="4" to-layer="1048" to-port="0" />
		<edge from-layer="1047" from-port="0" to-layer="1048" to-port="1" />
		<edge from-layer="1048" from-port="2" to-layer="1050" to-port="0" />
		<edge from-layer="1049" from-port="0" to-layer="1050" to-port="1" />
		<edge from-layer="1050" from-port="2" to-layer="1051" to-port="1" />
		<edge from-layer="1051" from-port="2" to-layer="1052" to-port="0" />
		<edge from-layer="1052" from-port="1" to-layer="1054" to-port="0" />
		<edge from-layer="1053" from-port="1" to-layer="1054" to-port="1" />
		<edge from-layer="1054" from-port="2" to-layer="1055" to-port="0" />
	</edges>
	<rt_info />
</net>
